data/hw4_q4_reacher_normal_k10_reacher_02-04-2024_10-05-28/agent.pt (torch, 50046 bytes, 12 tensors)

_std f4 [7]
0.1 0.1 0.1 0.1 0.1 0.1 0.1
00000000: cdcc cc3d cdcc cc3d cdcc cc3d cdcc cc3d
00000010: cdcc cc3d cdcc cc3d cdcc cc3d

_mean_net.0.weight f4 [64, 20]
-0.14521357 0.039058145 -0.084675 -0.19105068 -0.24681841 0.03872649 -0.22921924 0.0040810457
0.08858209 -0.05953486 0.15250628 0.00042871677 0.11330872 0.16479534 -0.14448957 0.12536703
-0.16840458 0.085356064 -0.067198895 0.11124755 -0.026797613 -0.056082185 -0.11342299 0.16886382
0.20139296 0.13624956 -0.025510214 -0.04345685 0.17350645 -0.24305466 0.012295449 -0.03478492
0.07562718 -0.09080407 0.109499365 -0.040074572 0.07005309 -0.048570823 0.20146318 -0.18525472
-0.1224485 -0.2162905 -0.039184622 0.09696314 -0.059784207 0.029425658 -0.016404191 -0.12192429
0.21975257 0.06721058 0.0036630942 0.17415273 0.070393346 0.081922434 0.4485506 -0.28655347
-0.138295 -0.0726197 0.04134831 -0.020547029 0.00432717 -0.058342203 -0.014290784 -0.207416
-0.09373694 -0.038724784 0.16919297 -0.04417963 -0.15414394 -0.057868868 -0.024777824 -0.032830212
-0.204536 0.16740736 0.09076023 -0.08623988 0.070190914 -0.0052944147 0.129006 -0.17351538
-0.13747457 0.03705557 -0.21284719 0.033130094 -0.16481212 0.17135914 0.123928644 -0.16555873
-0.07507041 0.0077967523 -0.06783236 0.06559281 -0.1697607 -0.1398105 0.26236802 -0.31067058
0.0046066134 0.111777425 0.17153439 0.014789785 0.17944896 0.16845307 -0.0674219 -0.2600934
0.16945809 0.17818025 0.08209319 0.0028326996 -0.23898284 -0.15385647 0.061708145 -0.09499117
-0.026304761 -0.058953594 0.13636146 0.3232502 -0.036526613 -0.03048164 0.18628137 0.0035333433
-0.18600747 0.20685162 0.2215463 -0.07360628 -0.020898847 0.044632796 -0.21167678 -0.21357161
0.1868105 -0.08008816 0.12985419 0.08652821 0.05676312 -0.21445777 -0.09910834 0.17246802
-0.07922381 0.014321329 0.013742538 0.18339072 -0.26190707 0.07826832 -0.11051758 -0.021508016
0.09755489 -0.14718084 -0.018578574 0.15573025 0.13066012 -0.13524505 -0.118578576 0.21132936
0.039878517 0.11126527 -0.07223369 -0.037224814 0.12235257 -0.0031673354 0.20769376 0.13939588
0.17385101 0.24131578 0.14308125 0.00026833572 -0.19053893 -0.19018336 -0.12081871 -0.16743441
0.13350679 0.07412092 -0.042377718 -0.15323149 0.18285735 0.16549802 0.06398842 0.25626418
-0.27550212 -0.097481854 -0.1117957 -0.025729025 -0.22231714 0.13706988 0.015397408 0.10992991
-0.09359002 -0.003795658 0.030974405 -0.10708341 0.20784938 -0.085361905 0.07125067 -0.11873077
-0.0072864527 -0.05735644 0.07013242 0.16903795 0.10973257 -0.047740996 -0.07764882 0.14897726
-0.10830332 0.17340928 -0.081208505 0.20362635 0.21582478 0.14711332 0.111561134 0.02694059
-0.021497002 -0.044216216 -0.0050134044 -0.010420951 -4.602484e-05 0.15114975 -0.09999766 -0.33212274
-0.14043933 0.024437789 -0.025144683 0.08030897 -0.10087448 -0.21970527 -0.02542747 0.12618843
-0.09855334 0.17409246 0.038994998 0.28820524 -0.20499156 -0.25911006 0.027947115 -0.20014939
-0.17067836 0.07881258 0.2506716 -0.32736576 0.26950976 -0.05592517 0.19458336 -0.10605529
-0.21790239 -0.17064485 -0.05577104 -0.25327906 -0.052396204 -0.17024997 -0.110771 0.0670419
0.03025925 -0.26197448 0.0746811 -0.15057948 0.14918017 0.21337248 0.059153672 -0.069754034
00000000: deb2 14be 6ffb 1f3d 166a adbd caa2 43be
00000010: f7bd 7cbe ab9f 1e3d 73b8 6abe 4bba 853b
00000020: 876a b53d d3da 73bd 9b2a 1c3e 64c5 e039
00000030: 670e e83d 1cc0 283e 13f5 13be 3760 003e
00000040: 4072 2cbe 29cf ae3d 939f 89bd c1d5 e33d
00000050: ab86 dbbc 6fb6 65bd 504a e8bd a3ea 2c3e
00000060: f539 4e3e 0185 0b3e ccfa d0bc cfff 31bd
00000070: adab 313e 52e3 78be da72 493c a27a 0ebd
00000080: 6ce2 9a3d 7cf7 b9bd 3441 e03d 3c25 24bd
00000090: ff77 8f3d 33f2 46bd 5d4c 4e3e 6ab3 3dbe
000000a0: 47c6 fabd 427b 5dbe 0e80 20bd 9c94 c63d
000000b0: 49e0 74bd 140e f13c 1562 86bc 71b3 f9bd
000000c0: d106 613e b3a5 893d 8610 703b 1855 323e
000000d0: 632a 903d f3c6 a73d 6da8 e53e 23b7 92be
000000e0: 349d 0dbe a3b9 94bd d85c 293d 3e52 a8bc
000000f0: efca 8d3b 3cf8 6ebd e423 6abc dc64 54be
00000100: 27f9 bfbd e19d 1ebd ec40 2d3e b3f5 34bd
00000110: e9d7 1dbe e807 6dbd ddfa cabc f978 06bd
00000120: e371 51be d66c 2b3e 80e0 b93d 899e b0bd
00000130: 41c0 8f3d c57c adbb 261a 043e 04ae 31be
00000140: 22c6 0cbe 95c7 173d 9df4 59be 6cb3 073d
00000150: 82c4 28be c578 2f3e 4dce fd3d 3a88 29be
00000160: 84be 99bd e67b ff3b b1eb 8abd 8655 863d
00000170: c0d5 2dbe 7c2a 0fbe 1a55 863e 3710 9fbe
00000180: 13f3 963b 90eb e43d b6a6 2f3e db50 723c
00000190: 78c1 373e f67e 2c3e 7e14 8abd f62a 85be
000001a0: 6c86 2d3e e274 363e 7920 a83d d0a4 393b
000001b0: ebb7 74be 8d8c 1dbe aec1 7c3d bb8a c2bd
000001c0: 157d d7bc 5379 71bd 57a2 0b3e 0d81 a53e
000001d0: ee9c 15bd a2b4 f9bc 8bc0 3e3e aa8f 673b
000001e0: be78 3ebe e9d0 533e 09dd 623e e4be 96bd
000001f0: 0f34 abbc e1d0 363d ccc1 58be 84b2 5abe
00000200: 404b 3f3e 4305 a4bd 7ff8 043e b435 b13d
00000210: 7280 683d d19a 5bbe 50f9 cabd 759b 303e
00000220: 1840 a2bd 02a4 6a3c 6228 613c c7ca 3b3e
00000230: af18 86be 244b a03d 0a57 e2bd 9431 b0bc
00000240: dcca c73d 93b6 16be 1832 98bc c077 1f3e
00000250: c4cb 053e ae7d 0abe 53d9 f2bd b966 583e
00000260: a857 233d 0cdf e33d 42ef 93bd 0c79 18bd
00000270: fc93 fa3d 1293 4fbb acad 543e cbbd 0e3e
00000280: 0006 323e 7c1b 773e e483 123e 69af 8c39
00000290: a31c 43be 6dbf 42be cd6f f7bd ed73 2bbe
000002a0: 01b6 083e b5cc 973d 4294 2dbd b7e8 1cbe
000002b0: f53e 3b3e 5078 293e 5c0c 833d 0f35 833e
000002c0: 9d0e 8dbe 91a4 c7bd 25f5 e4bd adc5 d2bc
000002d0: 1ba7 63be 0c5c 0c3e 6945 7c3c ef22 e13d
000002e0: 20ac bfbd 93c0 78bb 09be fd3c 8c4e dbbd
000002f0: 78d6 543e 39d2 aebd dfeb 913d 1e29 f3bd
00000300: 32c3 eebb 96ee 6abd 96a1 8f3d 4918 2d3e
00000310: 78bb e03d 108c 43bd 5806 9fbd 7f8d 183e
00000320: 22ce ddbd 3492 313e a550 a6bd 6d83 503e
00000330: 2c01 5d3e e0a4 163e 2a7a e43d 83b2 dc3c
00000340: 7b1a b0bc 101c 35bd 7c47 a4bb a3bc 2abc
00000350: cc0a 41b8 00c7 1a3e 93cb ccbd fe0b aabe
00000360: 54cf 0fbe c231 c83c 39fc cdbc 0779 a43d
00000370: 4897 cebd 6bfa 60be 454d d0bc 8a37 013e
00000380: 55d6 c9bd 4b45 323e 38b9 1f3d a38f 933e
00000390: 4fe9 51be 13aa 84be 59f1 e43c f6f3 4cbe
000003a0: 4fc6 2ebe 7d68 a13d 0758 803e 7c9c a7be
000003b0: 2ffd 893e cb11 65bd dc40 473e 8433 d9bd
000003c0: ce21 5fbe 86bd 2ebe 2d70 64bd cbad 81be
000003d0: 679d 56bd 0256 2ebe e8db e2bd 434d 893d
000003e0: 3fe2 f73c 8521 86be 68f2 983d 8231 1abe
000003f0: b0c2 183e 517e 5a3e 1f4b 723d 34db 8ebd

_mean_net.0.bias f4 [64]
-0.12327327 0.19089188 0.21628776 0.022222366 -0.043606408 -0.13365307 -0.04324204 0.203915
-0.10219003 -0.17908318 0.13556248 0.23934183 0.10693918 0.13417792 0.23055722 -0.010582209
-0.13394314 0.06162171 -0.1154369 0.17429887 -0.07681437 0.28388783 0.0011790514 0.18522936
-0.11036761 -0.17391019 -0.13740307 -0.04051222 0.25243017 -0.094715305 0.022616899 0.10668021
0.04625929 -0.001712243 0.19041036 -0.063924976 0.18294676 0.14807598 -0.12132552 0.049067825
0.13837479 0.08150961 -0.02877039 0.13767026 -0.0048178295 -0.0035721618 0.022849629 -0.01721078
0.054740433 0.09486434 -0.095832095 -0.04127235 0.06116234 0.24270286 -0.123682834 -0.032233175
-0.08204816 -0.120819174 -0.16295406 0.0966521 0.06531374 -0.119824484 0.24973334 -0.041151818
00000000: b276 fcbd 2979 433e 8a7a 5d3e ae0b b63c
00000010: a29c 32bd 5adc 08be 911e 31bd 18cf 503e
00000020: 0249 d1bd 9561 37be e4d0 0a3e 0616 753e
00000030: ee02 db3d f065 093e 3117 6c3e 0061 2dbc
00000040: 6428 09be 0c67 7c3d 2e6a ecbd 677b 323e
00000050: da50 9dbd bf59 913e 668a 9a3a c4ac 3d3e
00000060: 6a08 e2bd 8315 32be 64b3 0cbe 24f0 25bd
00000070: 873e 813e 19fa c1bd 1347 b93c 277b da3d
00000080: 627a 3d3d 576d e0ba effa 423e 19eb 82bd
00000090: 6556 3b3e 3ba1 173e 8479 f8bd 58fb 483d
000000a0: 1fb2 0d3e 83ee a63d e2af ebbc 6ff9 0c3e
000000b0: e2de 9dbb ee1a 6abb 252f bb3c 9ffd 8cbc
000000c0: 8137 603d 3c48 c23d 9e43 c4bd 320d 29bd
000000d0: 5d85 7a3d 1987 783e 6d4d fdbd ef06 04bd
000000e0: de08 a8bd 0b70 f7bd 6edd 26be 89f1 c53d
000000f0: 36c3 853d 8a66 f5bd 19ba 7f3e cf8e 28bd

_mean_net.2.weight f4 [64, 64]
0.028953178 0.11745626 -0.16631643 -0.04490028 -0.14606592 0.050981525 0.008911051 -0.14193246
0.058485396 -0.036929473 0.1023556 -0.034451324 -0.1806221 0.04248978 0.080613784 0.13714242
-0.08165582 0.1501275 -0.02598 -0.03743287 0.0490615 -0.027933266 0.10294366 0.10829643
0.05623595 -0.021672009 -0.12799975 0.050516166 -0.037480615 0.13140526 -0.010590861 0.09251518
0.07516814 0.0614059 0.06769329 -0.037347592 -0.033482812 0.034401096 -0.024430806 -0.070404515
-0.09018754 -0.16274326 0.15248813 0.036193237 -0.0054709115 0.029785546 -0.012924588 0.06078006
-0.07000743 0.15249996 -0.076168165 0.02792345 0.003125716 0.028855288 -0.00032815686 0.05023585
-0.015726553 -0.122342676 0.03290307 -0.095123805 0.048664134 -0.16294801 0.0038996143 0.07637407
0.02299404 0.03318168 0.010759354 0.10230506 -0.07046637 -0.025632668 0.07790203 0.12852405
-0.050851017 0.1055045 0.09195419 0.010864107 0.07637354 0.0656608 -0.12750658 -0.023917593
-0.10095512 -0.07240903 0.018547751 0.1058534 0.16012186 -0.071915194 0.058544505 0.11167663
-0.047466885 0.10050012 0.022050984 0.018070368 0.013223675 0.06885973 0.04591072 -0.043742646
-0.08024973 0.1113169 0.018411666 0.09426418 -0.060507026 -0.08364677 -0.030627504 0.040950913
-0.042577643 0.026446845 -0.038555503 -0.054321133 0.02653503 -0.11255728 -0.072957136 0.04620571
-0.12910524 0.0779097 0.09063954 0.056550086 -0.15218088 0.01831747 0.036324527 -0.0659075
-0.0677822 0.09769591 0.062042173 0.08372092 -0.04297063 0.032057088 -0.086003944 0.0026539348
0.1434261 0.12340257 0.10523443 -0.08013606 0.035666175 -0.014381283 0.08112179 -0.012234456
0.03821805 -0.10452517 0.012503275 -0.10782296 -0.05947561 -0.1189903 0.14469849 0.02101004
0.088902816 0.20661105 0.11612567 0.15792765 -0.0006148151 -0.0717306 -0.136286 -0.01657432
-0.062426496 -0.06855092 -0.06322553 0.10138382 0.050084736 -0.04250869 -0.03173466 -0.06382168
0.0641977 0.04227257 0.16034755 0.00048519904 -0.037476536 0.05726793 0.09748647 0.08309137
0.04682409 -0.090487905 0.07402236 -0.06915128 0.14937821 0.061122946 0.0851454 -0.06617866
0.016739318 -0.028932398 0.12779538 0.13266757 0.11864742 0.00494975 0.010446286 0.08436157
0.12752147 -0.0058803377 0.03053786 -0.067298345 0.091950506 0.020273421 0.090902045 -0.079310164
0.040001933 0.09091228 0.3233688 0.013323434 0.08198317 -0.101284325 0.09060146 -0.009289719
-0.094477646 -0.03513452 0.0032183193 0.12977418 0.059909783 0.026193894 0.021589283 -0.012301771
0.09595611 0.077851914 -0.01187086 0.01913386 0.1770867 -0.0147430515 -0.07187674 0.09979364
0.07397706 0.09137815 0.068752214 0.06049729 0.10069844 -0.09956454 0.22599961 0.05717582
0.046762224 0.12743248 -0.054595087 0.14053455 -0.07182854 0.1963464 -0.083981365 0.04814596
0.09227382 0.07531717 -0.18245578 -0.08210201 0.07438765 -0.007763816 -0.039324734 0.008325847
-0.08566772 -0.0093238205 0.12491772 0.11371498 0.0769662 -0.053618297 -0.015520285 -0.017485434
-0.105273016 0.16759929 0.11604918 -0.0137766665 0.12162273 -0.07163738 -0.042619273 -0.07294276
00000000: 372f ed3c e88c f03d db4e 2abe 5be9 37bd
00000010: 4e92 15be 01d2 503d a8ff 113c be56 11be
00000020: 628e 6f3d 5c43 17bd d09f d13d d51c 0dbd
00000030: 00f5 38be c309 2e3d d718 a53d 106f 0c3e
00000040: 2b3b a7bd 06bb 193e 02d4 d4bc 3653 19bd
00000050: b6f4 483d 4ed4 e4bc 20d4 d23d 85ca dd3d
00000060: ab57 663d 7f89 b1bc 5e12 03be 0aea 4e3d
00000070: 4685 19bd 1a8f 063e 4a85 2dbc 9978 bd3d
00000080: c1f1 993d c184 7b3d c8a2 8a3d caf9 18bd
00000090: 4625 09bd 2ae8 0c3d 1d23 c8bc 3e30 90bd
000000a0: 3fb4 b8bd 2ba6 26be d925 1c3e 5c3f 143d
000000b0: 5545 b3bb d100 f43c a7c1 53bc 83f4 783d
000000c0: 0e60 8fbd f328 1c3e 0efe 9bbd b8bf e43c
000000d0: d0d8 4c3b ed61 ec3c 780c acb9 1bc4 4d3d
000000e0: f9d4 80bc cc8e fabd 5fc5 063d 45d0 c2bd
000000f0: 0b54 473d d8db 26be ac90 7f3b 026a 9c3d
00000100: ff5d bc3c 83e9 073d 0048 303c 5185 d13d
00000110: ac50 90bd 9afb d1bc 198b 9f3d cf9b 033e
00000120: 2849 50bd be12 d83d 7a52 bc3d 5eff 313c
00000130: bb69 9c3d 2b79 863d 1691 02be d4ee c3bc
00000140: 8fc1 cebd 2f4b 94bd 74f1 973c abc9 d83d
00000150: fcf6 233e 4648 93bd 5dcc 6f3d b8b6 e43d
00000160: a36c 42bd 02d3 cd3d 44a4 b43c 4f08 943c
00000170: 1da8 583c 5506 8d3d e10c 3c3d 7d2b 33bd
00000180: f859 a4bd 1dfa e33d 10d4 963c 940d c13d
00000190: 37d6 77bd ff4e abbd 88e6 fabc 25bc 273d
000001a0: e565 2ebd 0ea7 d83c 60ec 1dbd d67f 5ebd
000001b0: fe5f d93c 6e84 e6bd 8d6a 95bd 3342 3d3d
000001c0: 2a34 04be 1f8f 9f3d 39a1 b93d 10a1 673d
000001d0: 4ed5 1bbe 850e 963c 07c9 143d 83fa 86bd
000001e0: 65d1 8abd cb14 c83d ef1f 7e3d e075 ab3d
000001f0: f901 30bd 4b4e 033d d622 b0bd a3ed 2d3b
00000200: 4bde 123e 7dba fc3d 2685 d73d 601e a4bd
00000210: b216 123d 799f 6bbc 2e23 a63d 0773 48bc
00000220: 888a 1c3d 4b11 d6bd 89da 4c3c 49d2 dcbd
00000230: b29c 73bd 30b1 f3bd d72b 143e 3f1d ac3c
00000240: ae12 b63d d991 533e 4cd3 ed3d c9b7 213e
00000250: 8b2b 21ba 7ee7 92bd 8f8e 0bbe dec6 87bc
00000260: edb2 7fbd 6d64 8cbd 637c 81bd 52a2 cf3d
00000270: a725 4d3d 981d 2ebd 34fc 01bd f1b4 82bd
00000280: 157a 833d 0126 2d3d 2632 243e 5062 fe39
00000290: ff80 19bd c791 6a3d fda6 c73d cf2b aa3d
000002a0: 9eca 3f3d b951 b9bd 0999 973d 309f 8dbd
000002b0: 9af6 183e 0e5c 7a3d b660 ae3d ad88 87bd
000002c0: e520 893c a303 edbc cbdc 023e 02da 073e
000002d0: 6bfd f23d 8331 a23b e626 2b3c c2c5 ac3d
000002e0: fd94 023e d9af c0bb 892a fa3c b7d3 89bd
000002f0: 8c50 bc3d 7214 a63c da2a ba3d 5e6d a2bd
00000300: 11d9 233d 3830 ba3d 9890 a53e 884a 5a3c
00000310: cbe6 a73d 286e cfbd 428d b93d e833 18bc
00000320: 7f7d c1bd 37e9 0fbd 70ea 523b 86e3 043e
00000330: f663 753d 9494 d63c 02dc b03c 5e8d 49bc
00000340: a384 c43d d370 9f3d ff7d 42bc 9dbe 9c3c
00000350: 3756 353e d78c 71bc 1d34 93bd 9c60 cc3d
00000360: 4981 973d 7824 bb3d f6cd 8c3d 02cc 773d
00000370: fc3a ce3d 7ee8 cbbd 716c 673e 3131 6a3d
00000380: bf89 3f3d a97d 023e 199f 5fbd 4ae8 0f3e
00000390: d71a 93bd 080f 493e 6cfe abbd b334 453d
000003a0: 0efa bc3d e33f 9a3d b0d5 3abe 1925 a8bd
000003b0: 8d58 983d 9c67 febb f912 21bd 2269 083c
000003c0: 8f72 afbd f0c2 18bc ddd4 ff3d 66e3 e83d
000003d0: 74a0 9d3d dc9e 5bbd cb48 7ebc 9d3d 8fbc
000003e0: 6199 d7bd 269f 2b3e 31ab ed3d 87b7 61bc
000003f0: 5615 f93d 9eb6 92bd 8c91 2ebd 0463 95bd

_mean_net.2.bias f4 [64]
-0.024536906 -0.00522612 -0.04848208 0.041905727 -0.057019025 0.023740493 0.0026002298 -0.09849604
-0.023009844 0.07241164 0.0892909 -0.09701881 -0.037665714 -0.100176625 0.039915405 -0.078481115
-0.020473871 -0.03336805 -0.1378133 0.022821283 0.104205124 0.055013616 -0.061618887 0.11371415
0.03837351 -0.02149559 0.095571294 0.026662728 -0.027509743 0.1625674 -0.062498733 0.11835052
0.09613786 -0.011717465 -0.0023220577 -0.08563582 -0.072289184 -0.0019503179 0.031500496 -0.039992534
0.024056818 -0.06491217 0.04737669 -0.07547468 0.13654093 0.14978799 -0.070417345 0.073133536
0.05930756 -0.077747986 0.03220112 -0.060975015 -0.1368484 0.046243057 -0.015086971 -0.1243196
-0.058485657 -0.011636386 0.00078929623 0.08446864 -0.079638526 0.045335878 0.13365035 -0.067282006
00000000: 9f01 c9bc df3f abbb 2595 46bd 57a5 2b3d
00000010: c88c 69bd 6c7b c23c 9e68 2a3b 4bb8 c9bd
00000020: 247f bcbc 8e4c 943d 26de b63d ccb1 c6bd
00000030: 5d47 1abd 6729 cdbd 567e 233d b5ba a0bd
00000040: d2b8 a7bc f0ac 08bd ee1e 0dbe b3f3 ba3c
00000050: 7f69 d53d f555 613d 1664 7cbd f7e2 e83d
00000060: 8b2d 1d3d 8517 b0bc e2ba c33d cb6b da3c
00000070: 1d5c e1bc 1278 263e acfe 7fbd c261 f23d
00000080: ede3 c43d 9cfa 3fbc aa2d 18bb d561 afbd
00000090: 5a0c 94bd cfa1 ffba aa06 013d 36cf 23bd
000000a0: ce12 c53c acf0 84bd 0f0e 423d 7892 9abd
000000b0: 63d1 0b3e 0662 193e f836 90bd 09c7 953d
000000c0: 7cec 723d 563a 9fbd 52e5 033d f0c0 79bd
000000d0: fd21 0cbe 5c69 3d3d 582f 77bc 469b febd
000000e0: a88e 6fbd 8aa6 3ebc c6e8 4e3a e5fd ac3d
000000f0: 8619 a3bd 1db2 393d a3db 083e 26cb 89bd

_mean_net.4.weight f4 [7, 64]
-0.16189773 -0.056096543 -0.11950828 0.19979447 -0.119994506 0.21260428 -0.07559975 0.08059252
0.24608994 -0.09884073 0.2530409 0.11935865 -0.028874513 -0.16760397 -0.083175324 -0.1441739
-0.08423762 -0.041670803 -0.14899144 0.041904263 0.14272729 -0.0012595007 0.06307179 0.13689154
-0.07879631 -0.1790803 -0.14269406 -0.10507295 0.12549981 0.23762466 -0.20047161 0.1623533
0.26365754 -0.19107147 0.02248568 -0.07835381 0.030869627 0.025503004 -0.044196796 0.011953913
0.0539917 0.09983545 0.15471065 -0.07973243 0.1513712 0.057122882 -0.095104516 0.23642874
-0.01277578 0.09294754 -0.075129814 -0.09394811 0.10066583 0.009132071 0.25770447 -0.100706905
-0.17912336 0.11522791 0.0658054 0.1820091 -0.015903408 0.18774945 0.17942907 0.18681006
-0.07782723 -0.067119 -0.14334393 0.113754325 -0.10974113 0.07011051 -0.06637731 0.06309842
0.08422525 -0.00046888718 0.04974631 -0.09049482 -0.116074026 0.075272605 0.1050515 0.086688325
-0.19425529 0.08125012 0.09703597 -0.07056175 -0.07332742 0.16043861 0.1374596 -0.041785404
-0.006621296 -0.009286967 0.13559404 -0.023269758 -0.13872997 -0.04799134 0.01135258 0.11945653
-0.06127007 -0.093209885 -0.08979751 0.0012149145 -0.09503357 -0.06299615 0.040570095 -0.031265467
0.0042377296 0.14575346 0.0045151934 -0.12678663 0.060998965 0.0023836656 -0.054939352 -0.06987703
-0.1887719 0.0305255 0.037696518 -0.0013648745 -0.05918149 0.13516514 -0.05965645 0.037954636
-0.06675027 -0.13543278 -0.12448906 0.09641309 0.10484308 0.119802475 -0.07449958 -0.09475907
0.18815216 -0.015810486 -0.10548761 -0.14830148 0.10188503 -0.082725555 0.08356096 0.03149968
0.054309174 0.019078016 -0.003451025 0.0049264566 0.13310243 0.050346274 0.1490196 0.12885286
-0.09305988 -0.030396562 0.08612345 0.100389116 0.0017239132 0.009803074 0.10034637 -0.14919418
-0.06978277 0.15891284 0.06300477 -0.038976528 0.14270654 -0.18156056 0.08569685 -0.05789669
-0.1663627 0.00633916 -0.008377609 0.11362915 -0.03242091 -0.028208481 -0.11517541 -0.13268976
0.104211874 0.12791581 0.116048 0.088964894 -0.18386675 -0.12269383 -0.04201027 -0.14451261
0.10198868 0.101752855 0.14443928 -0.042291056 -0.0045242663 -0.15821674 0.022447303 -0.0065988917
0.09969287 0.018411314 -0.079736546 0.13088721 0.05238109 -0.10202626 0.0640473 -0.07407601
0.019309748 -0.13741517 -0.14167671 -0.21213494 0.17160861 0.10973629 0.07400491 0.07977924
0.07839077 0.07479579 -0.005359466 0.026650747 0.15931931 -0.041756906 -0.119304255 -0.0041976995
-0.09455171 0.2163282 -0.03721514 0.0778275 0.18750742 0.15994711 0.0766407 -0.21579152
0.12698056 0.12377466 -0.15867722 0.012103642 0.21218188 -0.19001284 -0.17428046 -0.046441164
-0.15508635 -0.12895572 0.23035333 0.18940501 -0.051271614 0.1627713 -0.23082182 -0.23098153
0.13528594 0.0579191 -0.0934432 -0.13669975 -0.21277264 -0.2548456 -0.06368626 -0.03439504
0.025618585 0.017931484 0.15571356 0.059276775 -0.06714511 -0.13234991 -0.017723808 0.043129887
0.29493883 0.19384068 0.15517992 0.14117303 0.11635478 -0.00039629306 -0.054556597 0.14376749
00000000: 85c8 25be 7dc5 65bd c2c0 f4bd ec96 4c3e
00000010: aebf f5bd f0b4 593e 0bd4 9abd b10d a53d
00000020: 00ff 7b3e 026d cabd 948e 813e 4f72 f43d
00000030: 3e8a ecbc 60a0 2bbe d357 aabd 53a2 13be
00000040: c684 acbd 01af 2abd 3691 18be cea3 2b3d
00000050: 1a27 123e d515 a5ba c82b 813d 4c2d 0c3e
00000060: f65f a1bd d360 37be 641e 12be 7d30 d7bd
00000070: 0683 003e e153 733e 6e48 4dbe f23f 263e
00000080: 1ffe 863e 3da8 43be e433 b83c f677 a0bd
00000090: 4de2 fc3c adeb d03c b307 35bd 58da 433c
000000a0: 6726 5d3d 8776 cc3d 786c 1e3e c24a a3bd
000000b0: 0d01 1b3e aff9 693d 28c6 c2bd 601a 723e
000000c0: 8151 51bc 485b be3d a9dd 99bd de67 c0bd
000000d0: e329 ce3d af9e 153c d7f1 833e 6c3f cebd
000000e0: 1d6c 37be 9cfc eb3d fbc4 863d 9860 3a3e
000000f0: dd47 82bc 6441 403e 41bc 373e 234b 3f3e
00000100: e263 9fbd b075 89bd c0c8 12be 07f8 e83d
00000110: f5bf e0bd 1996 8f3d d4f0 87bd bf39 813d
00000120: 4a7e ac3d f9d4 f5b9 c9c2 4b3d 5955 b9bd
00000130: 38b8 edbd 8628 9a3d 3e25 d73d a689 b13d
00000140: dcea 46be 7766 a63d cbba c63d ae82 90bd
00000150: b02c 96bd 054a 243e 36c2 0c3e 2c27 2bbd
00000160: 75f7 d8bb 5d28 18bc 2ad9 0a3e 38a0 bebc
00000170: 3b0f 0ebe 9192 44bd 2c00 3a3c a0a5 f43d
00000180: 53f6 7abd d3e4 bebd c2e7 b7bd c43d 9f3a
00000190: f6a0 c2bd 2004 81bd d42c 263d 3810 00bd
000001a0: a7dc 8a3b 6540 153e 30f4 933b 5bd4 01be
000001b0: 0dda 793d 4637 1c3b 1608 61bd b01b 8fbd
000001c0: 6c4d 41be 9d10 fa3c aa67 1a3d 97e5 b2ba
000001d0: 4a68 72bd bb68 0a3e 525a 74bd 5276 1b3d
000001e0: 5eb4 88bd e4ae 0abe 1ff4 febd 3a74 c53d
000001f0: f8b7 d63d 005b f53d 3c93 98bd 0b11 c2bd
00000200: f6aa 403e fe84 81bc e309 d8bd 58dc 17be
00000210: 19a9 d03d 046c a9bd 0222 ab3d cf05 013d
00000220: 4c73 5e3d 8049 9c3c 982a 62bb 1d6e a13b
00000230: 014c 083e e537 4e3d 9898 183e 01f2 033e
00000240: 2e96 bebd 3602 f9bc 7e61 b03d cf98 cd3d
00000250: eef4 e13a 139d 203c 6682 cd3d 5cc6 18be
00000260: 45ea 8ebd 0cba 223e a508 813d daa5 1fbd
00000270: aa21 123e 03eb 39be d581 af3d 1425 6dbd
00000280: fc5a 2abe bab8 cf3b 3d42 09bc 66b6 e83d
00000290: cacb 04bd 7915 e7bc 16e1 ebbd d3df 07be
000002a0: 096d d53d 5dfc 023e 93aa ed3d 3a33 b63d
000002b0: 9147 3cbe e746 fbbd f612 2cbd 1dfb 13be
000002c0: 71df d03d cd63 d03d e4e7 133e 6339 2dbd
000002d0: 4c40 94bb 9203 22be 68e3 b73c 843b d8bb
000002e0: c72b cc3d 53d3 963c ea4c a3bd 4c07 063e
000002f0: 8e8d 563d 25f3 d0bd 3b2b 833d 2ab5 97bd
00000300: 7a2f 9e3c 90b6 0cbe b313 11be e739 59be
00000310: 2bba 2f3e 6cbd e03d e38f 973d 4c63 a33d
00000320: 578b a03d 892e 993d 769e afbb ab52 da3c
00000330: 9a24 233e 4a09 2bbd ca55 f4bd db8c 89bb
00000340: 54a4 c1bd 2485 5d3e e76e 18bd 0664 9f3d
00000350: f201 403e 2dc9 233e cdf5 9c3d 74f8 5cbe
00000360: 3107 023e 927d fd3d 487c 22be 5b4e 463c
00000370: 3546 593e ba92 42be 9476 32be 1739 3ebd
00000380: f5ce 1ebe f80c 04be bee1 6b3e 63f3 413e
00000390: 2f02 52bd 85ad 263e 8e5c 6cbe 6c86 6cbe
000003a0: 6688 0a3e 943c 6d3d 265f bfbd 05fb 0bbe
000003b0: 12e1 59be 1f7b 82be f16d 82bd d0e1 0cbd
000003c0: 11de d13c 0ce5 923c 6073 1f3e 34cc 723d
000003d0: 6083 89bd bc86 07be 8531 91bc f7a8 303d
000003e0: 3902 973e 2c7e 463e 7ce7 1e3e aa8f 103e
000003f0: 6a4b ee3d 8ec5 cfb9 bd76 5fbd c937 133e

_mean_net.4.bias f4 [7]
0.108249344 0.10781887 -0.040195048 0.07307866 -0.07124614 0.04498057 -0.024080576
00000000: d5b1 dd3d 24d0 dc3d 90a3 24bd 44aa 953d
00000010: 7fe9 91bd 8c3d 383d a144 c5bc

_baseline.0.weight f4 [64, 20]
-0.53235567 0.8247666 0.6878649 -0.13111225 -0.0242189 0.45117804 0.07760461 0.8319606
0.59956574 0.15307973 -1.0224444 0.08576798 -0.031977512 0.03281341 -0.21353061 -0.65148145
0.1184027 -0.087433755 0.0146689415 0.15440165 -0.060369827 1.6921737 -0.041793812 0.28057894
-0.4868221 -0.037045218 -0.1576065 0.9717523 0.23055226 0.15958841 -0.38647833 -0.051660817
0.1260805 0.063548416 0.23623244 -0.080393784 -1.5457894 0.034122273 -1.0209166 0.092318915
-0.8368973 -0.3966914 0.23872378 -0.45081818 -0.1997286 0.35877562 -0.39143384 0.6828715
-1.391829 -0.31116194 0.18303457 0.15611035 0.24381828 -0.031563282 -0.08749813 0.41950297
0.3653062 0.15513259 -0.8439164 -0.79405445 -0.58602005 -0.5911021 -0.19171123 -0.34488305
-0.09362218 0.10307903 0.43361527 0.54652077 -0.7325871 -0.6536939 0.562067 0.25077617
0.077477455 -0.05332858 -0.5780422 0.6734434 -0.49495003 -0.20044169 -0.11933293 0.5972618
-0.79655063 -1.1043278 -0.124957025 1.0212938 0.277251 0.40948427 -0.03274733 -4.790779
-0.35706556 0.48875135 1.3503516 0.051654465 0.22625992 0.094423875 0.14526293 -0.56938773
0.35551143 -0.28652188 -0.49882704 5.0779886 -0.35751042 0.96568096 0.12954119 -0.20299254
0.41734254 0.75752294 -0.3566892 -0.35542315 1.3351927 0.079786286 0.5160171 0.05124802
-0.014456944 0.15876326 -0.49273401 -0.14764103 -0.16263053 -0.2951328 -0.26241976 -1.2185291
-0.12799531 0.13526247 -0.2175559 -0.40596285 0.030196808 0.09107454 -0.060015947 1.1359993
-0.24542145 -0.005427172 -0.010741709 0.020186378 -0.0047701495 0.048813373 0.26663104 0.90223694
-0.5279043 0.919871 -2.3993893 -0.19103912 -0.6055688 -0.24621841 0.012535383 0.39899933
0.2712596 1.0427427 0.37187728 0.45568937 -0.37016115 0.055121932 -0.23436259 0.052458372
-0.16096635 0.33076373 -0.573672 0.42188123 -0.58011484 -0.61730695 -0.6829119 -0.37099212
-0.062445655 -0.77232134 -0.11180982 -0.10469902 0.5141208 0.06630485 0.36381087 0.13331415
-0.10707534 0.34107605 -0.39527136 0.034847815 -0.06269041 0.045524612 -0.4020191 -0.49797976
1.7287735 -1.4819502 0.8983273 1.0222951 -0.043799777 0.0856388 -0.30140188 0.2304006
0.228052 0.7229661 -0.020177271 -1.3756955 -0.053803217 -0.45300362 0.2748104 -0.13233761
-0.07371591 0.11289996 -0.60274327 -0.042175777 -0.780815 -0.9411267 -0.54706794 -0.56671304
-0.6114673 -0.68487245 -0.3015032 -0.08628232 -0.101652265 0.43711147 -0.29715988 -0.15966831
-0.6535127 0.37438834 -0.24088855 -0.30032986 -0.25521806 -0.19284959 -0.21812606 -0.4084424
-0.0065010227 -0.23902039 -0.30462924 1.4701455 -0.573295 -0.34944385 -0.0052638426 1.0108348
0.10808231 0.4082504 0.02271374 -0.63356495 -1.1656928 0.24976355 0.7212447 0.6445015
0.16800152 0.12928483 -0.15962474 -0.34460506 0.5355218 -0.6679841 -0.6981458 0.12281644
-0.88849324 -0.15401617 0.464909 0.51004344 -0.5233851 -0.05445618 0.2659745 -0.61962616
-0.7734132 0.31113306 0.32195044 0.6135223 0.21603467 -0.09458915 0.16606371 -0.1447457
00000000: 7648 08bf e723 533f ea17 303f 4a42 06be
00000010: b766 c6bc cf00 e73e 2aef 9e3d 5ffb 543f
00000020: 247d 193f efc0 1c3e 75df 82bf 1fa7 af3d
00000030: dafa 02bd 5b67 063d c5a7 5abe 7dc7 26bf
00000040: 1d7d f23d 7810 b3bd 0056 703c 771b 1e3e
00000050: 5a46 77bd 2699 d83f fd2f 2bbd 0ba8 8f3e
00000060: bf40 f9be babc 17bd 9963 21be c2c4 783f
00000070: e415 6c3e 256b 233e 7de0 c5be 4b9a 53bd
00000080: 3f1b 013e ac25 823d ebe6 713e 7fa5 a4bd
00000090: 6ddc c5bf ccc3 0b3d 65ad 82bf b311 bd3d
000000a0: e73e 56bf 231b cbbe 0274 743e a4d1 e6be
000000b0: a785 4cbe 70b1 b73e 046a c8be abd0 2e3f
000000c0: 7427 b2bf 9e50 9fbe 6a6d 3b3e 64db 1f3e
000000d0: 80ab 793e 8048 01bd 3832 b3bd 18c9 d63e
000000e0: 6a09 bb3e 14db 1e3e e80a 58bf 2747 4bbf
000000f0: 6905 16bf 7852 17bf f34f 44be 8394 b0be
00000100: fcbc bfbd 191b d33d d202 de3e c9e8 0b3f
00000110: d48a 3bbf 7c58 27bf 9fe3 0f3f bc65 803e
00000120: 80ac 9e3d 126f 5abd 93fa 13bf c966 2c3f
00000130: 176a fdbe 9640 4dbe d364 f4bd 26e6 183f
00000140: beea 4bbf 9d5a 8dbf 78e9 ffbd c1b9 823f
00000150: d8f3 8d3e eca7 d13e 1022 06bd 104e 99c0
00000160: 4cd1 b6be 9e3d fa3e 52d8 ac3f a293 533d
00000170: aeb0 673e 4e61 c13d cebf 143e 65c3 11bf
00000180: 9805 b63e ffb2 92be 4266 ffbe e27e a240
00000190: 9b0b b7be de36 773f 72a6 043e 47dd 4fbe
000001a0: ecad d53e 06ed 413f f89f b6be 06fa b5be
000001b0: 98e7 aa3f fe66 a33d b219 043f 72e9 513d
000001c0: d1dc 6cbc d692 223e a247 fcbe 362f 17be
000001d0: 9e88 26be a51b 97be e25b 86be c3f8 9bbf
000001e0: 3411 03be 3f82 0a3e f9c6 5ebe 5dda cfbe
000001f0: 4c5f f73c 4a85 ba3d 48d3 75bd 6d68 913f
00000200: c34f 7bbe 6bd6 b1bb fefd 2fbc e75d a53c
00000210: ea4e 9cbb 88f0 473d dd83 883e 00f9 663f
00000220: bc24 07bf aa7c 6b3f 988f 19c0 c29f 43be
00000230: 8f06 1bbf ae20 7cbe 3561 4d3c a449 cc3e
00000240: 8ae2 8a3e 9878 853f b366 be3e 1e50 e93e
00000250: c385 bdbe 89c7 613d bffc 6fbe 97de 563d
00000260: 5dd4 24be dd59 a93e 2bdc 12bf d100 d83e
00000270: 6882 14bf d407 1ebf 50d3 2ebf aef2 bdbe
00000280: 04c7 7fbd dab6 45bf 8cfc e4bd 716c d6bd
00000290: 6c9d 033f d6ca 873d 6b45 ba3e 8183 083e
000002a0: 514a dbbd 85a1 ae3e 0261 cabe 95bc 0e3d
000002b0: d463 80bd 0478 3a3d 73d5 cdbe 34f7 febe
000002c0: 7348 dd3f 8bb0 bdbf c7f8 653f 91da 823f
000002d0: 6567 33bd 6563 af3d 5951 9abe 23ee 6b3e
000002e0: 7786 693e 4e14 393f ce4a a5bc ca16 b0bf
000002f0: c360 5cbd 17f0 e7be f3b3 8c3e 8383 07be
00000300: 5ef8 96bd 1838 e73d 624d 1abf 82c0 2cbd
00000310: 7ee3 47bf aeed 70bf a50c 0cbf 1b14 11bf
00000320: 1f89 1cbf cd53 2fbf a15e 9abe c9b4 b0bd
00000330: 102f d0bd 13cd df3e 5725 98be 1780 23be
00000340: 9c4c 27bf d4af bf3e 7dab 76be d6c4 99be
00000350: f1ab 82be 5d7a 45be 705c 5fbe 5d1f d1be
00000360: 8806 d5bb c3c1 74be 5df8 9bbe ba2d bc3f
00000370: 76c3 12bf 4eea b2be 507c acbb 0963 813f
00000380: 425a dd3d 3206 d13e 2a12 ba3c 5031 22bf
00000390: 6c35 95bf 04c2 7f3e 7ea3 383f 0dfe 243f
000003a0: 9708 2c3e 3e63 043e ab74 23be 1370 b0be
000003b0: f517 093f 0201 2bbf afb9 32bf 3087 fb3d
000003c0: 4b74 63bf 6ab6 1dbe 8d08 ee3e 3592 023f
000003d0: 91fc 05bf 720d 5fbd cf2d 883e d29f 1ebf
000003e0: 68fe 45bf d54c 9f3e b0d6 a43e cc0f 1d3f
000003f0: 3138 5d3e f5b7 c1bd 9b0c 2a3e 3738 14be

_baseline.0.bias f4 [64]
-1.0496633 -0.66308314 -0.659535 -0.90960026 -0.11854791 -0.8379317 -0.2615714 -0.8858533
-0.4921384 -0.6563241 -0.7872045 -1.0875027 -0.45095962 -0.6863945 -0.43535203 -0.43307945
-0.80108595 0.6647394 -0.6561112 -0.13090141 -0.64888513 -0.5829907 0.11113478 -0.51708406
-0.5550083 -0.67633647 -0.8226423 -1.0295609 -0.87375426 -0.8466148 -0.22248475 -0.7921741
-0.6548386 0.7870118 -0.633806 -0.64535993 -0.39840716 0.500144 -0.71945244 -0.9583749
-0.75685704 -1.0188069 -0.53184557 -0.6142578 -0.69905037 -0.46800473 -0.65347487 -0.2746892
-0.5819702 -0.8294252 -0.751087 -0.7427538 -0.3507721 -0.5618017 -0.527952 -0.6011835
-0.7313346 -0.65471524 -0.8098915 -1.125464 -0.64189494 -0.41277352 -0.8714605 -0.8850615
00000000: 5e5b 86bf d1bf 29bf 49d7 28bf 90db 68bf
00000010: 3fc9 f2bd b182 56bf b0ec 85be 48c7 62bf
00000020: 90f9 fbbe db04 28bf 3c86 49bf 4a33 8bbf
00000030: 2ee4 e6be 8db7 2fbf 76e6 debe 97bc ddbe
00000040: f813 4dbf 5c2c 2a3f e7f6 27bf 050b 06be
00000050: 561d 26bf e13e 15bf a29a e33d 9f5f 04bf
00000060: 0615 0ebf 6324 2dbf b098 52bf a7c8 83bf
00000070: 5cae 5fbf bfbb 58bf 0bd3 63be eccb 4abf
00000080: 81a3 27bf 9b79 493f 1c41 22bf 4f36 25bf
00000090: 06fc cbbe 7009 003f 092e 38bf 0f58 75bf
000000a0: 62c1 41bf 4468 82bf 0827 08bf 0040 1dbf
000000b0: f7f4 32bf 519e efbe 214a 27bf 10a4 8cbe
000000c0: 00fc 14bf 3655 54bf 3d47 40bf 1d25 3ebf
000000d0: 6798 b3be 3cd2 0fbf dd27 07bf 29e7 19bf
000000e0: bf38 3bbf 6b9b 27bf 0d55 4fbf 340f 90bf
000000f0: 3a53 24bf 0d57 d3be 0918 5fbf 6493 62bf

_baseline.2.weight f4 [64, 64]
0.4531395 0.585959 0.4319844 0.8131596 0.15215608 -0.035144303 0.116550565 -0.02986851
-0.8859579 -0.7697768 0.06119914 0.5046513 0.45428616 -0.23626207 -0.1387094 -0.16085166
0.11445029 -0.7359346 -0.22444811 0.019998506 0.8374412 0.024555303 0.16024499 -0.5177487
0.45777532 -0.289045 -0.9227276 0.7099152 -0.1358762 0.11301695 0.20401861 0.33955944
1.1886448 -0.84349525 0.30809715 0.1903557 0.22046085 -0.99237746 -0.1787899 0.15438725
0.117187746 0.6935977 0.10769482 -0.12160497 0.14667232 0.024791826 0.21655798 -0.82223976
-0.086234085 -0.036710817 0.61276305 0.27639675 0.026819803 0.500722 -0.121412136 0.07347782
0.43002036 0.14921154 0.6746027 0.07980218 -0.5016527 0.11172262 0.32603258 0.34021962
0.7453733 0.40155718 0.30581954 -0.122870244 -0.25240487 -0.0019258289 -0.28889146 0.16109505
-0.49293104 0.5160711 0.54579675 -0.13708569 0.69891787 -0.06104976 0.05841742 -0.26224804
-0.2962509 -0.5118649 0.6043398 0.18528478 0.57466763 0.1762966 -0.77992195 -0.6655203
0.26216495 0.33873892 0.88396174 0.13255069 -0.19173075 -0.88696826 0.46911764 0.43243366
0.4036757 -0.07115951 0.47669446 -0.3557483 -0.20919754 0.083082475 0.29775536 -0.5141588
-0.20217633 0.24391063 0.4072224 -0.1503896 0.29824406 0.22941487 0.07372822 0.1468675
0.7071407 -0.190314 0.051500347 -0.1775362 0.50943327 0.12935336 0.7053299 0.6115082
0.7040072 0.22844864 0.20949008 0.19065568 0.19806623 0.48534358 -0.08523061 0.6785722
-0.21817139 0.54612213 -0.055926308 0.6407674 0.26382563 0.058522336 -0.3113369 -0.26695395
-0.49008286 0.81244886 0.59250396 0.56041914 0.12167433 -0.37415233 0.111402504 0.22194786
0.4943697 -0.26736018 0.4627168 0.41002434 0.044957735 -0.0720892 0.035931364 -0.43302014
1.0143223 0.43715745 0.21240932 0.23182802 -0.08948806 -0.4332418 0.07538138 0.009531931
0.28373522 -0.7021518 0.28291917 0.14860515 0.08371747 -0.32431772 0.73776346 0.013076089
0.7010781 0.38601127 0.87524503 -0.21211958 -0.2553925 -0.57673 0.36869416 0.10733168
-0.3037161 0.18567343 -0.011848685 0.019448237 0.96319467 0.06320306 -0.003366359 0.36801
-0.33972877 -0.04402798 0.4059588 -0.22207281 0.9536819 -0.20174913 0.75842965 0.5175159
0.27517056 0.06781116 0.47733006 0.9363549 0.10428075 -0.5709678 0.076561205 -0.050512165
-0.26844105 -0.3596733 0.09031984 0.9727805 -0.20734425 0.72036695 0.47528407 0.09912455
0.366251 0.037783794 0.24821967 0.56952673 -0.09498221 0.6233014 -0.054516625 -1.3646637
0.51727736 -0.703874 0.7388537 -0.083784275 0.8623789 0.091386385 -0.013579489 -0.0029717265
-0.058518425 -0.4213341 0.005839919 -0.54479104 0.6944114 -1.2673897 0.9008485 -0.41742882
0.42737707 -0.33453175 0.48564777 0.34976482 0.57832074 -0.24117537 1.0535727 0.7517794
-0.13489698 0.12198562 -0.02908084 0.014661951 -0.089839816 0.538833 -0.006104387 1.1990609
0.10643701 -0.28300142 -0.24697201 -0.05312938 -0.62031704 0.2472721 0.3205732 0.61351335
00000000: e701 e83e 6901 163f 0f2d dd3e 3a2b 503f
00000010: cece 1b3e 79f3 0fbd 10b2 ee3d ceae f4bc
00000020: 23ce 62bf 1810 45bf f3ab 7a3d d430 013f
00000030: 3298 e83e afee 71be d609 0ebe 4cb6 24be
00000040: ea64 ea3d 3666 3cbf bad5 65be e8d3 a33c
00000050: 8c62 563f 3428 c93c 4317 243e 2e8b 04bf
00000060: 8761 ea3e b5fd 93be e037 6cbf 01bd 353f
00000070: 2123 0bbe 6e75 e73d 41ea 503e bcda ad3e
00000080: 8325 983f 4eef 57bf e9be 9d3e 9bec 423e
00000090: 7dc0 613e 730c 7ebf b314 37be b117 1e3e
000000a0: 2100 f03d 9e8f 313f 1a8f dc3d 070c f9bd
000000b0: 4531 163e 3a18 cb3c 60c1 5d3e 4e7e 52bf
000000c0: 7f9b b0bd 155e 16bd 0ade 1c3f e083 8d3e
000000d0: 34b5 db3c 512f 003f eda6 f8bd 8a7b 963d
000000e0: a12b dc3e e9ca 183e c3b2 2c3f 536f a33d
000000f0: 506c 00bf d4ce e43d beed a63e 4431 ae3e
00000100: c9d0 3e3f e798 cd3e 6194 9c3e 65a3 fbbd
00000110: 363b 81be 186c fcba 95e9 93be 1af6 243e
00000120: 7561 fcbe 3c1d 043f 56b9 0b3f 3160 0cbe
00000130: 48ec 323f 500f 7abd 1b47 6f3d 6045 86be
00000140: 33ae 97be 9409 03bf 03b6 1a3f 4bbb 3d3e
00000150: 6b1d 133f 1987 343e f7a8 47bf 8a5f 2abf
00000160: 7c3a 863e 306f ad3e 514b 623f 5ebb 073e
00000170: 1155 44be 5a10 63bf 3030 f03e f267 dd3e
00000180: 95ae ce3e 14bc 91bd 4c11 f43e a424 b6be
00000190: e137 56be 2527 aa3d 6473 983e e99f 03bf
000001a0: 5007 4fbe b5c3 793e 747f d03e bbff 19be
000001b0: 72b3 983e bbeb 6a3e d2fe 963d 6f64 163e
000001c0: 2c07 353f ace1 42be 07f2 523d 0dcc 35be
000001d0: 386a 023f 3575 043e 8090 343f cd8b 1c3f
000001e0: d139 343f 71ee 693e 9184 563e 3e3b 433e
000001f0: e0d1 4a3e f47e f83e 638d aebd e8b6 2d3f
00000200: 5268 5fbe a9ce 0b3f fc12 65bd 5509 243f
00000210: 2714 873e 1eb5 6f3d 8d67 9fbe 30ae 88be
00000220: 24ec fabe a6fc 4f3f 57ae 173f a177 0f3f
00000230: 6430 f93d e590 bfbe ff26 e43d 4d46 633e
00000240: 061e fd3e 6fe3 88be 37e9 ec3e b6ee d13e
00000250: 9a25 383d 81a3 93bd c42c 133d d1b4 ddbe
00000260: 50d5 813f 1ad3 df3e d481 593e 5364 6d3e
00000270: 8445 b7bd dfd1 ddbe 8e61 9a3d d12b 1c3c
00000280: be45 913e 38c0 33bf c8da 903e f32b 183e
00000290: 1174 ab3d f90c a6be 11de 3c3f 183d 563c
000002a0: db79 333f 45a3 c53e 0f10 603f e035 59be
000002b0: cec2 82be 94a4 13bf 7bc5 bc3e b6d0 db3d
000002c0: ad80 9bbe 2d21 3e3e fd20 42bc e951 9f3c
000002d0: ed93 763f 9b70 813d 229e 5cbb cf6b bc3e
000002e0: eef0 adbe af56 34bd d5d9 cf3e 0e67 63be
000002f0: 7f24 743f 5397 4ebe 7228 423f ec7b 043f
00000300: 28e3 8c3e 94e0 8a3d 9b64 f43e f4b4 6f3f
00000310: 2591 d53d f22a 12bf 1fcc 9c3d d8e5 4ebd
00000320: 1b71 89be 1927 b8be 9cf9 b83d 2508 793f
00000330: 0d52 54be f869 383f 6f58 f33e d001 cb3d
00000340: 4085 bb3e 2ec3 1a3d 4c2d 7e3e 81cc 113f
00000350: 0886 c2bd ae90 1f3f d34c 5fbd 4dad aebf
00000360: 4a6c 043f 1631 34bf 8425 3d3f 1797 abbd
00000370: ddc4 5c3f c928 bb3d 817c 5ebc 4cc1 42bb
00000380: 04b1 6fbd 1ab9 d7be cb5c bf3b 6d77 0bbf
00000390: f2c4 313f d339 a2bf 029e 663f 3bb9 d5be
000003a0: 2bd1 da3e bf47 abbe d3a6 f83e 6014 b33e
000003b0: d40c 143f adf6 76be 78db 863f 9d74 403f
000003c0: 6f22 0abe 99d3 f93d f13a eebc ae38 703c
000003d0: f0fd b7bd f6f0 093f 4f07 c8bb d47a 993f
000003e0: a6fb d93d 90e5 90be 3be6 7cbe 319e 59bd
000003f0: 19cd 1ebf e634 7d3e 2c22 a43e 360f 1d3f

_baseline.2.bias f4 [64]
-0.56830674 -0.36448017 -0.40290585 -0.8969498 -1.1692858 -0.34117198 -0.40683895 -0.48569253
-0.4679415 -0.33344743 -0.4113006 -0.10579216 -0.29613176 -0.70283455 -0.6993787 -0.51543844
-0.20965065 -0.37129465 -0.63498867 -0.45844397 -1.0738745 -0.7623745 -0.6844586 -0.6913617
-0.89622676 -0.6707854 -0.69513655 -0.7553925 -1.0119514 -0.85297704 -0.5026369 -1.1160337
-0.67356235 -0.49103236 -0.47743842 -0.847722 -0.52660227 -0.48231634 -0.7933792 -0.70851475
-0.5601976 -0.48653403 -0.43151262 -0.54372513 -0.33627337 -0.4237901 -0.60198057 -0.8120336
-0.0023298268 -0.30120456 0.15424304 -0.57047564 -0.6023399 -0.62877446 -0.25646228 -1.2003855
-0.60255855 -0.15455271 -0.43887106 -0.4925509 -0.67494494 -0.710312 -0.6868012 -0.27828914
00000000: 8d7c 11bf 259d babe ad49 cebe 819e 65bf
00000010: 28ab 95bf 18ae aebe 324d d0be b1ac f8be
00000020: 0796 efbe 9fb9 aabe fe95 d2be 8fa9 d8bd
00000030: 959e 97be f7ec 33bf 7c0a 33bf c6f3 03bf
00000040: a9ae 56be 551a bebe 9e8e 22bf 2bb9 eabe
00000050: b874 89bf fa2a 43bf ae38 2fbf 15fd 30bf
00000060: 1e6f 65bf 98b8 2bbf 78f4 31bf 6761 41bf
00000070: a087 81bf b45c 5abf d0ac 00bf 31da 8ebf
00000080: 956e 2cbf 9868 fbbe cf72 f4be 4f04 59bf
00000090: 68cf 06bf 2bf2 f6be e61a 4bbf 3961 35bf
000000a0: 1c69 0fbf fd1a f9be 39ef dcbe 9231 0bbf
000000b0: 062c acbe 04fb d8be 661b 1abf 6fe1 4fbf
000000c0: 02b0 18bb 7c37 9abe e3f1 1d3e b10a 12bf
000000d0: f332 1abf 5df7 20bf 064f 83be 3ba6 99bf
000000e0: 4741 1abf 1143 1ebe b5b3 e0be a22f fcbe
000000f0: 31c9 2cbf 02d7 35bf 34d2 2fbf ea7b 8ebe

_baseline.4.weight f4 [1, 64]
-0.0110025685 -0.053104915 0.0046235817 -0.049830996 -0.18359235 0.009193158 -0.22667007 -0.022852665
-0.09819551 0.08134808 -0.010018238 0.011567901 -0.012747538 -0.012251474 -0.010055493 0.07671231
0.01398816 0.0072075264 -0.07197877 0.16785204 0.0032791002 0.0646215 0.088419385 0.013912905
-0.05879382 0.020266619 0.004134683 0.007961648 -0.015528951 -0.06582425 -0.005396721 -0.12275081
-0.042022284 -0.08250309 0.021030566 -0.024184164 0.012131947 0.08828106 0.045492142 0.07678719
0.0008781133 -0.0020032837 -0.07811177 0.015285058 -0.031299185 0.025969025 -0.040719103 -0.033133723
-0.014761276 0.017323095 0.21436886 0.0033356627 0.4291719 0.012589019 0.12903515 -0.025083182
-0.050279357 0.0168366 0.013425673 0.022451064 0.029571885 -0.011609919 -0.029992377 0.02794662
00000000: 1e44 34bc 8a84 59bd 6a81 973b 961b 4cbd
00000010: a2ff 3bbe e69e 163c 331c 68be 8335 bbbc
00000020: ba1a c9bd d299 a63d 8923 24bc 4b87 3d3c
00000030: 0ddb 50bc 68ba 48bc cbbf 24bc 581b 9d3d
00000040: 982e 653c 1d2d ec3b 9b69 93bd 68e1 2b3e
00000050: 2ce6 563b 4758 843d 3915 b53d f4f2 633c
00000060: cad1 70bd 2e06 a63c 3c7c 873b 9271 023c
00000070: 246d 7ebc ddce 86bd fad6 b0bb c764 fbbd
00000080: 8f1f 2cbd 61f7 a8bd 4b48 ac3c de1d c6bc
00000090: 13c5 463c b3cc b43d f855 3a3d 9a42 9d3d
000000a0: 3031 663a 8649 03bb 10f9 9fbd 2e6e 7a3c
000000b0: 9333 00bd febc d43c 13c9 26bd 3ab7 07bd
000000c0: 47d9 71bc 2ae9 8d3c 8383 5b3e 229b 5a3b
000000d0: 6bbc db3e 2c42 4e3c ca21 043e 3f7b cdbc
000000e0: baf1 4dbd e9ec 893c 5bf7 5b3c 4beb b73c
000000f0: bd40 f23c 8837 3ebc 93b2 f5bc 4ff0 e43c
