data/hw4_q4_reacher_normal_k5_reacher_02-04-2024_13-01-44/agent.pt (torch, 50046 bytes, 12 tensors)

_std f4 [7]
00000000: cdcc cc3d cdcc cc3d cdcc cc3d cdcc cc3d
00000010: cdcc cc3d cdcc cc3d cdcc cc3d
0.1 0.1 0.1 0.1 0.1 0.1 0.1

_mean_net.0.weight f4 [64, 20]
00000000: 9f8c 0abe 80fe 02bc 0825 14be 5461 02be
00000010: cd67 68be 597e 8f3d b12a 57be 9842 5ebc
00000020: d50e 9b3d 7ebe 8abd 59ee 223e b940 643b
00000030: d1ab 0d3e 79bb 353e 787a 2dbe fced 043e
00000040: 9b57 06be da80 cd3d b1dc 9dbd 241d b53d
00000050: f5ff babc 3e01 03be bc3a e4bd 8ac7 8e3d
00000060: 3784 5f3e 2e30 b53d 52dd e5bb 7e0c 2b3d
00000070: a965 1b3e 1123 79be 21a0 f43b 4230 96bd
00000080: fded c03d e490 e6bd d8df 413e 07d9 abbd
00000090: 2b11 5a3e 9ef7 0ebd aed2 7b3e 28cf 4fbe
000000a0: ca82 a6bd deed 85be 4e33 97bc 4b8c 453d
000000b0: 4ce2 b9bd ac83 f33c 3088 4abd 7222 c9bd
000000c0: 8a4f 543e f5dd aa3d 155e 5e3d c1b4 1e3e
000000d0: 7797 023d c9ed 8e3d c60a d83e cb4d 7ebe
000000e0: a903 d2bd f944 9abd dce6 803d 0956 78bc
000000f0: 3e74 23bd 3ed8 b73d f471 c23d 1d48 06be
00000100: ba8e c3bc 0dd6 00bd 4a6a e63d 1614 a8bd
00000110: 3b5a b3bd e882 28bd 9ebb 9fbd 1f0e 0bbd
00000120: 1730 52be ec51 3e3e e828 033e d89b fabd
00000130: df7f d8bd ab19 0bbd 5ce0 e43d 2f6d 15be
00000140: 6cc6 fdbd 7283 403d 2607 2cbe 8a1c 23bc
00000150: 0133 25be 2eef 383e 6789 b73d d524 11be
00000160: 0a24 d3bd 7148 233d 2b05 abbc 78f2 023d
00000170: cd4f 55be 2deb 02be 26cc 763e d91c 8cbe
00000180: ade1 4d3c 042c ab3d 5600 1e3e cb8c 9a3c
00000190: 4425 103e 84dd 303e cd75 a5bd 21d6 0dbe
000001a0: 90fc 153e 4925 3c3e c3c0 ad3d 2eb1 b0bd
000001b0: 32cf 62be d93e 52be f954 ad3c be4a d4bd
000001c0: cc06 9bbd 4a96 2fbd 6aab 233e 6915 823e
000001d0: b4c0 bebd fe8b 79bd 7851 153e b5e6 a0bc
000001e0: dda9 60be 623e 9e3d 860a 4a3e 8d29 37be
000001f0: 4b6f 42bd 0174 893d 5ece 3fbe 8804 3bbe
00000200: 50cf 273e a3bb f5bd 853d f33d ce00 c83c
00000210: c91a 403d 2c5d 2ebe fe7b cabc ee21 043e
00000220: 00ad d93d 3497 89bd e3ab 2a3d bc73 2c3e
00000230: 26f3 6abe 38ac fa3d 80da 1bbd a557 13bd
00000240: 8ec5 f73d 4a92 1bbe acde 7cbc f18d 4e3e
00000250: 7c39 df3d 956a c0bd c404 bdbd c6df 3c3e
00000260: eaf1 b63d aed9 033e 971e e5bd a1c3 e03c
00000270: 5eff 8c3d 8dda 11bb 55a8 433e c991 073e
00000280: f9f2 7f3e 1de0 f33a 4c5f a23c 52d0 f8bd
00000290: 401f 85be 9e8f 86be a318 1dbe a3bf dfbd
000002a0: d8e7 9c3d 5a97 8f3d 28f5 31bd d215 2dbe
000002b0: 245c 753e 1abe 243e f507 953d 4239 883e
000002c0: ef36 3d3b 4d04 5ebd 8554 89bd 911e f3bc
000002d0: d398 4abe 00be 2c3e 913e 333c 66fe ed3d
000002e0: 03ea f4bd d7e8 69bc 4412 b53c 93cd 5abd
000002f0: d14c 5c3e 0c61 acbd ee55 913d 5fcf 18be
00000300: 388e 27bd 2af4 92bd c989 b23d b888 243e
00000310: 4839 783d 4264 e5bc 5600 75bd 74d0 2e3e
00000320: 28d9 99bd 9a30 533e 6ac3 bbbd 68e4 3e3e
00000330: 19fb 543e 82de 183e 7c42 e93d 93d8 9f3d
00000340: 2b78 bbbd 44e8 99bc 8d72 1a3d 2b2a 43bd
00000350: 1402 473d 8151 173e 0b2c 19be df74 82be
00000360: b935 30be 26e7 cb3c 41fa 05bd 4e46 9b3d
00000370: cf0d aabd d0c2 0bbe dada 033d 495f 093e
00000380: 030f 01be aff2 393e 024f 753d f4d2 7f3e
00000390: e70c 0abe b4b2 84be 1bb8 7b3c 0a70 51be
000003a0: c751 50be b3c6 973d d5d0 6e3e 9b31 a4be
000003b0: 564a 363e 8f72 27bd 1b86 4f3e f38b 08be
000003c0: f16f 3ebe 6fb4 09be ac2e 5ebd 8368 88be
000003d0: d40f 25bd c479 f7bd 8510 8dbd cc5c 113c
000003e0: 7b9a ed3c 7d41 58be a8a0 083e 06ed 2cbe
000003f0: ae10 053e 2e8d 533e b339 a9bd c98e a43c
-0.13530205 -0.007995248 -0.14467251 -0.1273244 -0.22695847 0.07006521 -0.21012379 -0.013565682
0.07571188 -0.06774615 0.15911235 0.0034828617 0.13835074 0.17747296 -0.1694125 0.12981409
-0.13119356 0.10034342 -0.07708109 0.08843449 -0.022827128 -0.12793443 -0.11144015 0.06971653
0.2182778 0.0884708 -0.007014909 0.04175996 0.15175499 -0.24329783 0.007465378 -0.07333423
0.09420393 -0.112581044 0.18933046 -0.08391004 0.21295612 -0.034904115 0.24592087 -0.20293868
-0.08130415 -0.2615804 -0.018457081 0.048229497 -0.09076366 0.029725872 -0.049446285 -0.09821023
0.20733467 0.08343116 0.054288942 0.1549864 0.03188273 0.06978948 0.4219572 -0.24834363
-0.10254604 -0.07532687 0.06294033 -0.015157231 -0.03990578 0.08976792 0.09494391 -0.13113447
-0.023871768 -0.031454135 0.11250742 -0.08206956 -0.087574445 -0.041140467 -0.07799457 -0.033949014
-0.20526157 0.18585938 0.12808573 -0.12236756 -0.105712645 -0.033960026 0.11175606 -0.14592431
-0.123913616 0.047000356 -0.16799602 -0.009955535 -0.16132738 0.1805999 0.08961754 -0.14174207
-0.10309608 0.039864007 -0.020876488 0.031969517 -0.20831223 -0.12785025 0.24101314 -0.2736576
0.012566012 0.08358005 0.15429816 0.018865963 0.14076716 0.17272002 -0.08079109 -0.13851215
0.14647126 0.18373598 0.08484032 -0.08627544 -0.22149351 -0.20531787 0.021158682 -0.103658184
-0.07569656 -0.042867936 0.15983358 0.2540696 -0.09314099 -0.060924523 0.14581859 -0.01964126
-0.21939798 0.07726742 0.19730577 -0.17886944 -0.04746942 0.06711579 -0.18731067 -0.18263447
0.16387677 -0.119986795 0.11876968 0.024414446 0.046900544 -0.1702773 -0.024717327 0.12903568
0.106287 -0.06718293 0.04166783 0.16841024 -0.22944316 0.12239879 -0.038050175 -0.035972256
0.120982274 -0.15192524 -0.0154339485 0.20171334 0.10899636 -0.09395329 -0.092294246 0.18444738
0.0893286 0.12876007 -0.11187475 0.027437033 0.06884645 -0.002225551 0.19107182 0.13239206
0.2499503 0.001860622 0.019820832 -0.12149109 -0.26000404 -0.26281446 -0.1534143 -0.10925224
0.07661408 0.0701129 -0.04344669 -0.16902855 0.2396093 0.16088143 0.07276908 0.26606184
0.0028871854 -0.05420332 -0.06705574 -0.029677661 -0.1978486 0.16869354 0.01094021 0.11620788
-0.11958697 -0.014276705 0.022103436 -0.053418707 0.21513678 -0.08416948 0.07096468 -0.14922856
-0.040907115 -0.07175477 0.08717687 0.16067779 0.060601503 -0.028001908 -0.059814773 0.17071706
-0.075121224 0.20624009 -0.09168132 0.18641818 0.20798911 0.1492863 0.11389634 0.0780498
-0.091537796 -0.01878751 0.0377069 -0.047647636 0.048585966 0.14777185 -0.14958207 -0.2547979
-0.17207994 0.024890494 -0.032709364 0.07581769 -0.08303415 -0.13648534 0.032191135 0.13415255
-0.12603383 0.18158983 0.0598898 0.24982816 -0.13481484 -0.2591759 0.015363718 -0.20452896
-0.20343696 0.07410946 0.2332185 -0.32069096 0.17801794 -0.040880736 0.20266001 -0.13334636
-0.1859739 -0.13447736 -0.05424373 -0.26642236 -0.040298298 -0.12083772 -0.068879165 0.008872222
0.029004326 -0.21118732 0.13342535 -0.16887292 0.12994644 0.20659325 -0.082629584 0.020087617

_mean_net.0.bias f4 [64]
00000000: fef6 00be 3970 633e 3695 5e3e 1757 4d3c
00000010: 848f 92bd 4e93 0bbe 5704 7bbd 85d9 333e
00000020: 2d7a 1abd 4b27 18be e487 d33d 6d20 803e
00000030: 3639 173d fe24 233e 39d4 5c3e c4e3 a0bd
00000040: 3709 49be ef08 9f3d 3b3e 8cbd 06db 253e
00000050: 64ef fcbd 518d 933e 5b35 d53a 0fc9 683e
00000060: 682f a6bd 1c9f 62be f8af 17be 9bd2 b3bc
00000070: 3b8e 853e a1b3 fcbd 4a50 3b3c 0533 1a3e
00000080: b75c 733d cf4c 7cbc 8be1 043e c521 80bd
00000090: a8a5 b93d 93f7 2c3e fe5a c4bd ab3e 5e3d
000000a0: 03e8 033e f9e3 aa3d 538f 0abd e096 f53d
000000b0: 8731 c0bd 5964 3fbd f9bf 0b3d a118 10bc
000000c0: bf52 a63d 76dd ce3d ee87 08be 03d5 febc
000000d0: c26b 043e 3d22 6f3e 7299 bfbd da40 25bc
000000e0: 2c20 1cbe cf85 e9bd 5a14 32be a518 113e
000000f0: 462b 813d 38ca eebd c4c5 903e 81a0 3ebd
-0.1259422 0.22210778 0.21736607 0.012532971 -0.0715628 -0.13630411 -0.061283436 0.17563446
-0.037714172 -0.14858739 0.103286535 0.2502474 0.036919795 0.1593208 0.21565332 -0.07855943
-0.19632421 0.07765376 -0.06847807 0.16196832 -0.12350348 0.28818753 0.0016266512 0.22732948
-0.08114511 -0.22131008 -0.1481322 -0.02195101 0.26085076 -0.12338949 0.011432717 0.15058525
0.05941459 -0.015399172 0.12976663 -0.06256441 0.090647995 0.16891317 -0.09587668 0.054258984
0.12881474 0.083442636 -0.03382809 0.11991668 -0.093844466 -0.04672656 0.034118626 -0.0087949345
0.08121251 0.10100834 -0.13333103 -0.031107431 0.12931731 0.23352905 -0.09355439 -0.010086263
-0.15246648 -0.11402475 -0.17390576 0.14169557 0.06307082 -0.11659664 0.28275883 -0.046539787

_mean_net.2.weight f4 [64, 64]
00000000: d209 2b3b b2ab e03d ad83 fcbd 375a 07bd
00000010: 4701 07be 76aa 613d 5758 11bd b3c8 f0bd
00000020: b82b 1fba 9437 9e3b 244b 093e 8b27 f03b
00000030: 36b6 02be 8171 8a3d 4a4b 8d3d 7a2f 4f3d
00000040: dbe8 81bd 3b08 a43d 0f33 92bd 3825 cbbb
00000050: 65b4 293d 4db4 51bd dd58 c93d 5a36 e13d
00000060: 0000 b5bc d905 4fbc 776b 8fbd 0a53 7c3d
00000070: 58b0 53bd 6af1 ff3d a180 c03b 52d0 b73d
00000080: 32f6 883d ab62 a53d 2b39 a2bc a70a 22bd
00000090: 9137 9dbd 1a3e 5a3d f512 b1bc 5614 c3bd
000000a0: a55c 70bd 9d2f ffbd 2efa c83d 0f94 13bb
000000b0: ca96 8ebc ae85 c53b 5952 2abc b39a 8c3d
000000c0: ff56 b0bd 91fd c53d 7c25 96bd e295 8139
000000d0: 7c23 dfbc 3524 213a 3fd2 433a 4ae5 223d
000000e0: cf21 c1bd f469 b4bd 2c33 b03d d99e ddbd
000000f0: 0bf2 a13d 5ac2 e8bd ae10 13bd 06cb 403d
00000100: c3c1 4b3d de83 953b f8bb 7d3b a109 053e
00000110: 77fc b5bd ecd4 23bd 4ff4 9a3d ac7c dc3d
00000120: 6e53 0abd 3c92 e13d 0722 1e3d c6dc 003d
00000130: 4124 be3d 5c03 493d 3f4e ccbd 71b8 ccbb
00000140: 8d00 f9bd 2d6d c5bd 1612 763b c2cd c73c
00000150: f815 e93d dc84 04bd 2d63 aa3d 5e81 d53d
00000160: c10e f8bc fa15 d23d cb98 813b f641 4e3d
00000170: b8aa a939 7c8e 4f3d df4c 743d c12d 44bd
00000180: 2035 ffbd 2eb0 813d a164 183b 3c20 e93d
00000190: c5dd a1bd d465 a0bd 2405 9fbd eaa7 a23d
000001a0: b3a8 37bd 3d71 c73c bdf9 afbc e374 77bd
000001b0: 571d 663c d898 b4bd fec3 a0bd af69 343d
000001c0: 29b3 ebbd b4ed 993d 5bac 113e c27c 4e3d
000001d0: a3bb f3bd 1e09 1a3c 5150 843c c6b6 e2bd
000001e0: afb8 89bd 1f85 d03d c20e 8e3d ba63 9d3d
000001f0: 5502 39bc 5f6c 52ba 88c7 a5bd 9fb2 7a3c
00000200: 57e8 d13d cdd6 1d3e c7f3 063e 640f 5dbd
00000210: 9edd 823d c083 333d ab3f fa3c d82d 8abc
00000220: 077a 53bd c1d7 ccbd a15e 6abc b49b 42bd
00000230: 2d01 a5bc a09d bfbd eb57 153e 1cf3 dfbd
00000240: a253 323d b04c 043e 4e34 993d c4fc 2e3e
00000250: 0961 38bd 76e0 93bd 3e06 f6bd 964f 93bc
00000260: 98fc eabd 3240 6abd 42e9 73bd 748f 1d3e
00000270: c70c 643d 7de4 4d3c 171c 8bbc e8c8 c7bc
00000280: eea5 f13d b927 b93d 81f7 6e3d fbd4 213c
00000290: 23d1 0fbe 144f 973d 446d b03d a632 bf3d
000002a0: 416a a63d c660 2abd ca91 6b3d 81b7 9dbd
000002b0: 344b be3d 899d 903d 4c74 cc3d 3352 b8bd
000002c0: 2728 993c 88e9 71bd 4838 f83d c203 e83d
000002d0: 7097 153e d261 e13b 17c0 b6bc 43a8 fa3d
000002e0: e42a 343d 7c03 a93b 8181 903d 59df 31bd
000002f0: 8fde d33d e38c 793d 358c bf3d ac69 7abd
00000300: 4c0c 463d 3588 873d 92cd 833e a688 493d
00000310: bcf0 003d 77fe b2bd cc42 0e3e d055 94bd
00000320: b2f5 2abd ddcd 76bc fd84 52bd 94e0 e93d
00000330: a95a ce3c 23a9 4dbd 6ad0 973c abb7 1e3d
00000340: 9fc1 9f3d 4cb9 a93d 5f76 34bd e5e8 24bd
00000350: afc7 7b3d 0922 e33c de62 23bd 46df fb3d
00000360: c2b6 de3d ee39 ad3d b34a 933d 710a a13d
00000370: a3f2 b93d 5bb5 b8bd 47e1 603e 323f 4f3d
00000380: 0c0b a23d 9229 543d 188b a33b 12fe 013e
00000390: e9be afbd e70e 683e d489 87bd f4a4 dc3d
000003a0: 4e64 783d 7832 4d3d 74e0 0fbe eaf3 19bd
000003b0: 0103 3d3d 53c1 ab3d abc2 1bbd edd2 bcbb
000003c0: 3c14 77bd 3bb4 043d 77f6 db3d b903 1b3e
000003d0: 412c 003e bcb4 3ebd e5b2 5ebd 85ad 58bd
000003e0: f5fb 51bd 309f 0b3e ad61 af3d 5a3f bfbc
000003f0: ab3f ab3d 084a f3bd f08c 89bb dc5f 99bd
0.0026098383 0.10970248 -0.12329803 -0.03304502 -0.13184081 0.055094205 -0.035484638 -0.1175703
-0.0006071883 0.004828403 0.1340757 0.0073289326 -0.1276482 0.067599304 0.06899126 0.050582387
-0.06343242 0.08009382 -0.07138645 -0.006199505 0.041431803 -0.05119734 0.098314025 0.10996695
-0.022094727 -0.0126356715 -0.07002919 0.06160263 -0.051681846 0.12497218 0.0058747088 0.08975281
0.06687583 0.0807546 -0.01980265 -0.03956094 -0.07676614 0.05328188 -0.021615485 -0.09525363
-0.058682103 -0.124602534 0.09813343 -0.002251867 -0.017405886 0.0060278988 -0.01039561 0.06865444
-0.08610343 0.096675046 -0.07331368 0.0002471647 -0.0272386 0.0006147058 0.0007469989 0.03976945
-0.094302766 -0.088092715 0.0860351 -0.108213134 0.07907494 -0.113651946 -0.03590458 0.04706862
0.049745332 0.004562839 0.0038716774 0.12991954 -0.088860445 -0.03999798 0.075661294 0.10765967
-0.03377097 0.1101422 0.03860667 0.031460546 0.09284259 0.04907547 -0.09975862 -0.006247573
-0.12158308 -0.09639964 0.00375474 0.024390105 0.11381143 -0.032353267 0.083196975 0.104250655
-0.030280473 0.10258098 0.003954982 0.050355874 0.00032361387 0.050672993 0.059643622 -0.047895197
-0.12461305 0.06332432 0.002325334 0.11383101 -0.07903627 -0.07831922 -0.07764652 0.07942183
-0.04483862 0.024345988 -0.02148139 -0.060414206 0.014045081 -0.08818215 -0.078498825 0.0440461
-0.115087815 0.075160414 0.14225905 0.050411947 -0.11901023 0.009401588 0.01615158 -0.110700175
-0.06724679 0.10181641 0.069364086 0.07685037 -0.01129206 -0.0008027013 -0.08094698 0.015301376
0.102493934 0.15413971 0.13178931 -0.053969756 0.063899264 0.04382682 0.030547937 -0.016867563
-0.051630046 -0.10002089 -0.014304788 -0.04751177 -0.020142162 -0.093562365 0.1458432 -0.10935041
0.04353679 0.12919879 0.074806795 0.1708861 -0.045014415 -0.07220547 -0.12012909 -0.017982285
-0.1147396 -0.057190128 -0.059548624 0.15386754 0.055676248 0.012566683 -0.016981168 -0.024387792
0.11799227 0.090407796 0.058341507 0.009877439 -0.14044623 0.0738813 0.08614591 0.09335832
0.08125735 -0.041596197 0.057512082 -0.07701016 0.092916876 0.070612974 0.09983119 -0.09000053
0.018695904 -0.059060603 0.1212011 0.11328842 0.1460855 0.006878116 -0.022308392 0.122391246
0.043986216 0.005157886 0.07055951 -0.04342589 0.10345184 0.060925376 0.09352914 -0.061135933
0.04835157 0.06617776 0.25742775 0.049202584 0.031479582 -0.087399416 0.13892668 -0.0724293
-0.04173822 -0.01506373 -0.05139636 0.11419788 0.025189715 -0.05021013 0.018531997 0.03874938
0.07800602 0.08287296 -0.0440582 -0.040261168 0.06146973 0.02772619 -0.03988921 0.122984454
0.10874702 0.08458315 0.07191982 0.0786332 0.090794824 -0.09018966 0.21960936 0.050597377
0.07912263 0.051797457 0.0049909465 0.12694576 -0.08581335 0.22661935 -0.066180855 0.1077365
0.060642533 0.05009696 -0.14050466 -0.03758613 0.046145443 0.08386483 -0.038027447 -0.005762449
-0.06032203 0.032398444 0.10740369 0.15138139 0.12516882 -0.04655908 -0.054369826 -0.052899856
-0.051265676 0.13634944 0.08563552 -0.023345638 0.08361753 -0.11879355 -0.0041977093 -0.07488987

_mean_net.2.bias f4 [64]
00000000: 39af 51bd 11b4 47bc 86f6 62bd 059a 3a3d
00000010: ebe6 bdbd 3773 693d 9e38 513c aacf 94bd
00000020: ce66 42bc f8e9 993d 4266 e33d 6ab7 a6bd
00000030: ee3e 62bd 745c 02be 29ce 933c daf4 82bd
00000040: 0886 82bd d00c 09bd c23f 0bbe 7952 333d
00000050: b6c3 133e 4d5b 963d 05e3 8ebd 1753 d23d
00000060: 1913 603d 9e50 62bd b854 413d b8b3 f83c
00000070: f4ab 14bd eddc 2a3e e81a 0dbe c14b 0c3e
00000080: d19e a43d 99b3 aabd 69de 043d 30d1 04be
00000090: f46f 8abc 1a8e 6c3d cdc5 2f3d 4a66 4dbd
000000a0: 1586 293d f47d a5bd 6214 7a3d ea86 99bd
000000b0: cdb0 073e a329 9c3d c9e8 94bd 2f8e ae3d
000000c0: 8200 1a3d 1c05 94bd 5cff 8a3c 7345 51bd
000000d0: bbe2 3abd 8074 7e3c 9ca6 aebd 4f3a fabd
000000e0: 81cb 9ebd 7dae 513c a4c9 943c 3645 3a3d
000000f0: 61aa 29bd 108d 863d 7951 0f3e fa53 51bd
-0.051192496 -0.012188927 -0.055410884 0.04555704 -0.0927256 0.056994643 0.012769846 -0.07266171
-0.011865331 0.07515329 0.111034885 -0.08140452 -0.055235796 -0.1273058 0.01804264 -0.06394358
-0.06373221 -0.033459485 -0.1359854 0.043779824 0.14430127 0.07341633 -0.06976894 0.102697544
0.054705713 -0.055252664 0.047199935 0.030359134 -0.0362968 0.16685839 -0.13779795 0.13700773
0.08038104 -0.08335037 0.03243867 -0.12970424 -0.016899087 0.057752706 0.042913247 -0.05014638
0.041387636 -0.08080664 0.061054595 -0.07496436 0.13251038 0.07625129 -0.07270963 0.08523213
0.03759814 -0.07227537 0.016967468 -0.051091623 -0.045626383 0.015530705 -0.08527872 -0.12218153
-0.07753659 0.012797949 0.018162556 0.04547616 -0.04142225 0.06569874 0.13995923 -0.051105477

_mean_net.4.weight f4 [7, 64]
00000000: 793f b6bd ae43 44bd da1b 6ebd dd4f 303e
00000010: 9a03 bcbd 4556 423e a828 97bd 0e9d b33d
00000020: 92b3 5b3e b903 debd 82f9 683e fca1 c13d
00000030: 09d4 20bd ac88 e2bd 15ce 5cbc a0f4 09be
00000040: 7101 aebc 300f c4bc 66ab 22be 9ced 013d
00000050: b1dd 143e 52e5 6d3c 20a3 293d e857 db3d
00000060: b930 47bd 3df9 0cbe df87 86bd adf7 ddbd
00000070: b5b6 2c3d 9ee0 4f3e 5aa3 9bbd 19ce 1a3e
00000080: 1b2e 533e 3540 b1bd bb3c 613d 8c78 80bd
00000090: b35a fb3d 34a2 ba3c d1e2 d53b e2bf 693d
000000a0: 583d 8a3d 5c74 993d 9621 363e e312 90bd
000000b0: c26d 033e 49b4 313d 484e 7fbd 62fd 4c3e
000000c0: fcf7 bb3c 4df7 d73d 63a9 7fbd 16f3 bbbd
000000d0: 757b 4b3e d542 eaba 3171 bd3d 6191 ddbd
000000e0: d85c 16be 0b40 ce3d c203 3d3d 3e6c be3d
000000f0: 69d9 25bd 1de9 423e 899e 2d3e 0419 233e
00000100: 3ebe 86bd 1ec0 94bd f1be ddbd 32dd e53d
00000110: 7774 ccbd d82f 493d 0034 89bd dcad 9c3d
00000120: e6df 863d 5e29 1d3c b4ab 093d 56cf dfbd
00000130: fb8f debd a73c 273c 8ebc 8b3d c1de e03d
00000140: 43ec e7bd 8ddf 7c3d d75d b33d a432 cabd
00000150: d1bc 8fbd 6de7 fd3d e77a 9e3d 3bc8 64bc
00000160: b21e 543b 6d40 01bd 8b02 f63d e251 e9bc
00000170: ea93 dbbd bb0f 35bd fddb 30bc 970a d53d
00000180: c882 63bd 9873 bebd 878e 9fbd 42ba 85bc
00000190: f49f 53bd a6a5 13bd e2ff 9dbb d0f9 22bd
000001a0: b7f0 283c 3a59 b93d 3f24 0ebc fa3a c4bd
000001b0: 72ac 833d 25a7 803c b796 29bd ea1c 85bd
000001c0: 899e e1bd 3ba5 fd3c b5c8 2b3d 5971 e6bb
000001d0: 82e8 1cbd a6ba d83d e590 c4bd 43ad 353d
000001e0: d3a4 d7bd 752d d9bd 4a61 c3bd 2302 843d
000001f0: 66fb f53d d27c 833d cb40 68bd a1bc b1bd
00000200: 9b6d bb3d 683d 08bd c5ca 01be 9eb9 0abe
00000210: 5fdb ed3c 0eb6 f1bd e07d 973d 83a1 353d
00000220: 83fd d93c 5790 3c3c 45cb b6bc 211a 653d
00000230: 01c7 bf3c 10ba 543c a516 9b3d dd39 0c3e
00000240: f955 8fbd 752e cebd 5cb7 f73d dbbd d73d
00000250: a751 afbd 288b b1bd 9683 0b3c 3579 c5bd
00000260: 6c1f 05be e8c9 2c3d aaee f93c 1804 02bd
00000270: d450 9f3d ad5f 14be bb19 ba3d 598e b2bd
00000280: 65ef f0bd 2b74 27bc ca30 1dbe 5012 813d
00000290: a89a 40bd 28a2 13be f8cb 8cbd 7d65 50bd
000002a0: 6d05 3a3c 27e7 8d3d 7e56 ad3d 9b3f b63d
000002b0: 7caa 18be 4da0 87bd 378c 41bd aa3d 0ebe
000002c0: d2c7 4f3c 7359 853d 9955 e63c 481a 36bd
000002d0: d906 70bd 0e72 8dbd a9f3 c73d c6e3 e5ba
000002e0: 01b0 2cbd b17d 90bd 456d 18be cda0 bf3d
000002f0: 365d 273d a2c4 0dbe 8b25 813d 945c debd
00000300: 8bed 623c d675 debd e5f1 35be 07eb 35be
00000310: ae5e 833d cc9e f73d beb2 dd3d 6adb c93d
00000320: 7183 a23d 5a6e a93d ac02 653c 3c8d 4cbc
00000330: 9f39 053e 302d adbd 3742 1bbe 057e 82bc
00000340: 9806 f83b 9760 173e 3846 14bd 0c86 c73d
00000350: 3b98 3d3e daf0 0c3e f99d 1a3e f30f 57be
00000360: ac32 0e3e a103 ef3d 3a10 f5bd 9caf 4db9
00000370: 34a1 643e 217a 2cbe 0598 b1bd d731 06bc
00000380: bf03 e3bd ad42 3abd c4a4 6c3e 40b3 af3d
00000390: 8215 45be f688 0e3e f4f4 80be b008 63be
000003a0: b2bc f83d 3050 9a3d a486 37be d872 2cbe
000003b0: 2e72 25be 9503 84bd 2131 88bd 9854 893b
000003c0: 6ed3 9e3d 16ea 013d 4414 1c3e 43f4 653d
000003d0: 1f3a 9abd 9791 dabc b95b 9a3d d9c4 0e3d
000003e0: 4ccb 823e e4d4 563e eedb b53d 164f bc3d
000003f0: 3586 1e3e 3670 273d 808f dbbd 8ad2 143e
-0.08898825 -0.047916107 -0.05813203 0.17217965 -0.091803744 0.18978222 -0.073808014 0.0877019
0.2145522 -0.10840554 0.2275143 0.09454724 -0.039264712 -0.11061224 -0.013476868 -0.13472223
-0.021240922 -0.023933023 -0.15885696 0.031720743 0.14537694 0.014520006 0.041415334 0.10710126
-0.04863045 -0.13766952 -0.06568884 -0.10838256 0.04216643 0.20300528 -0.07599516 0.15117683
0.20623057 -0.08654825 0.054989558 -0.062729925 0.12273159 0.022782423 0.0065272828 0.05706776
0.06749982 0.07492897 0.1778625 -0.07034852 0.12834838 0.043384824 -0.062330514 0.20018533
0.022945397 0.10545216 -0.0624174 -0.09177224 0.19871314 -0.0017872701 0.09250105 -0.108187445
-0.14683855 0.10070809 0.04614616 0.09297989 -0.04049054 0.19034238 0.16955008 0.15927511
-0.065792546 -0.07263206 -0.10827435 0.1122383 -0.099831514 0.049117893 -0.06699371 0.076503485
0.06585674 0.009592382 0.033611014 -0.10928218 -0.10867306 0.010207332 0.06823073 0.10979987
-0.1132436 0.061736632 0.08758133 -0.0987294 -0.07018436 0.123976566 0.077382855 -0.013963754
0.0032366929 -0.03155558 0.12012204 -0.028481428 -0.10721572 -0.044204455 -0.010794637 0.104024105
-0.055544645 -0.092993915 -0.07790857 -0.016324166 -0.051666215 -0.036046647 -0.0048217634 -0.03978902
0.010311297 0.09050222 -0.008675634 -0.095815614 0.06429376 0.0157047 -0.0414035 -0.064996555
-0.11016566 0.030962577 0.041939456 -0.007032555 -0.038307674 0.10582475 -0.09597949 0.04435469
-0.105294846 -0.10604373 -0.09540041 0.0644572 0.12010841 0.06420292 -0.056702416 -0.08678556
0.09151765 -0.033261687 -0.12675007 -0.1354737 0.029035268 -0.11802302 0.073970556 0.044343483
0.026610142 0.011509023 -0.022313723 0.05593312 0.023410322 0.012983814 0.075726785 0.13693948
-0.0699882 -0.10067455 0.1209552 0.10534259 -0.08560496 -0.0866912 0.008515259 -0.09642259
-0.13000268 0.04218474 0.030509312 -0.031742185 0.077790886 -0.14489622 0.09086939 -0.08718557
-0.11764411 -0.010220568 -0.15350643 0.06302321 -0.04702249 -0.14417326 -0.068748415 -0.050878037
0.011353833 0.069288544 0.08463763 0.088988505 -0.14908785 -0.06622372 -0.04725286 -0.1389071
0.012681918 0.06511202 0.028116988 -0.044458658 -0.05860028 -0.0690652 0.09763271 -0.0017539195
-0.042160038 -0.07055224 -0.14885433 0.09356842 0.040860377 -0.1384454 0.06305989 -0.108575016
0.01385058 -0.10862319 -0.17768057 -0.17765437 0.06414543 0.12090835 0.10825108 0.09856303
0.07935227 0.08273001 0.013977688 -0.012484845 0.13010262 -0.084558845 -0.15161978 -0.015929231
0.0075691454 0.1478294 -0.03619978 0.09742364 0.18515103 0.13763753 0.15099324 -0.21002178
0.13886517 0.11670614 -0.119659856 -0.00019615743 0.22327119 -0.16843463 -0.086715735 -0.008190594
-0.11084699 -0.045473743 0.23109728 0.08579111 -0.19246486 0.13919434 -0.25186884 -0.22171283
0.12145366 0.07534826 -0.17922455 -0.16840684 -0.16156837 -0.06445996 -0.066499956 0.0041909926
0.07755171 0.031717382 0.15242106 0.05614115 -0.07530617 -0.02668075 0.07537026 0.034855697
0.25545728 0.20979649 0.08879839 0.09194772 0.15480883 0.040878497 -0.1072073 0.1453344

_mean_net.4.bias f4 [7]
00000000: 9479 013e 6bb3 c23d b5d5 9cbd b992 b53d
00000010: deaf a8bd 099e 343d ee39 c1bc
0.12644035 0.095068775 -0.07657949 0.08865876 -0.08236669 0.044096027 -0.023587193

_baseline.0.weight f4 [64, 20]
00000000: da2b 92be d22a 243f 1369 8b3e dfda 3bbe
00000010: a9ff 8c3d 4ab0 233d 83a2 f23d 547f fc3d
00000020: dabc 733f 2975 b8bd 9513 d1be 99a4 033d
00000030: ffbd dcbd f92b 32bd f53b babe e583 48be
00000040: a8e1 aebe 62c4 813e 4617 543f 3739 acbe
00000050: fd00 2abf beaf 95be 25db 843e cb7c 3d3f
00000060: 61c2 a5be ae0d 6e3e 11db 53be fc54 a93e
00000070: 467e 0bbf 9817 523f 922f 903f ae6f 57bd
00000080: 3cf5 a93e 8c42 0d3e d238 823e 438d 52be
00000090: e7bd 85be 3fba a93d 9816 41bf e1fd bebf
000000a0: 9206 34be de26 1b3e 9527 2d3e 4cfc 0c3f
000000b0: fd81 b1bd ba30 b03e 1d11 763e 0eea fe3d
000000c0: 8d09 c33d 31cb df3d 0d04 2fbe 4d1a debc
000000d0: 6134 d5bd 6e27 6f3c ece9 113d 6fc1 9d3e
000000e0: 9be2 65be 3f73 45be edf7 acbe d18f 5b3e
000000f0: afdb d7bd c0f3 1d3e 3057 8ebd 6459 f33e
00000100: c61f c43e d0e1 a73e cf06 9cbe 3810 52bf
00000110: 9342 253f 5880 51be 7be5 dd3e 9127 cd3d
00000120: a398 00bc 0909 53be a573 dbbd d2d7 a8bc
00000130: 520d fbbe 5a0b a5bf 2127 ab3e a325 adbe
00000140: 1d30 03bf 95ed ac3d 1615 463e bd4f a03e
00000150: 78fb d3bc 0b95 ef3b 0e43 3a3d 4504 88be
00000160: 4284 253e b369 3ebe 9b9d 9f3e 91fa 00bd
00000170: 5ad6 94bd 1824 5cbe 3d85 d2bd dc35 df3d
00000180: b388 fcbe 4ffa e3bf 5e38 c9be d205 6cbe
00000190: 090c 77be 8bcd 5abf 1130 5ebe 8c9c 063f
000001a0: 4272 113e 2309 8bbd 056d 69bd cafc 8fbf
000001b0: 6dae 9b3e 62ee f7bd 0883 913e 1fa2 bcbe
000001c0: 0472 c2bd 3770 bebd 6162 34be 3ebc 133e
000001d0: 7597 213f 7b6f b53e e740 473f 458b 31bf
000001e0: 34a0 173e 8636 44be a3fb e9bd 0136 29bf
000001f0: 84fa 8abd 2dd9 4c3e 483c ffbd 64a3 ba3f
00000200: 0826 50bf 0953 45be 3599 afbf ac77 62bc
00000210: bf7b ce3c 0683 023e fc41 0c3f 96c6 163f
00000220: ccd3 823e baa5 903d 2cb2 62bf ae3f 9bbe
00000230: 23c1 8abe 401a 0c3f 4b7f ae3c c308 b53e
00000240: 37b0 4f3e ec3b 023e 06a7 8dbe ec66 adbf
00000250: 3372 833f 4bbd ee3d d552 173f c80b 953d
00000260: c209 983d d60b 973c 8aab 8bbd 3f67 07bd
00000270: 102b 6bbf 0e71 bcbf e0e0 a03e 5117 f23e
00000280: 7c80 abbd 7b9a 01bf 29a7 cf3e bb1a 79bf
00000290: 097e 9c3d db42 07bd 148b 083e ff4f 6cbe
000002a0: e684 e43e 6abc 753e f48b 2ebf 2098 43bd
000002b0: 3a16 c9bb 0f81 b93c f217 12bf 3191 5fbe
000002c0: 91b4 cc3e 738d e1bd 7577 e73e e288 22bf
000002d0: d83b 983e b7f5 c83e 79b8 2d3d 7408 673e
000002e0: af59 01be 6f75 323d 6620 903d 5c42 86be
000002f0: 26eb 5fbe e1b4 433e a8d9 863e 1cee f2bc
00000300: 426a f03c 028e 3ebc 0c55 02bf 3b38 503e
00000310: e276 a0be 6cc1 883e d342 08c0 0673 03bf
00000320: 3d1b 6dbd fca3 823e 6a4d 2e3e e9a1 443e
00000330: 2636 cbbc c519 cc3e cdc6 5cbe 6c3e 27bf
00000340: 2092 e13e f5ed 083d 20e8 893e 08ca a2bc
00000350: 418c 99bd 8a09 49bd 742c c6be 9d1c 5a3e
00000360: 2347 d2be aa6d 693d d201 98be 897a 013d
00000370: 1e02 f8bb 6f0e 963e 0cc2 ae3f 4bbf c4be
00000380: da79 babe 7e4b f0bd 0716 843e 08f1 48be
00000390: 9070 ca3e 370c 183e f771 37bf 0e98 3a3e
000003a0: c8a5 f2bd 9ab3 2d3e faad 83be cba5 2cbe
000003b0: ed8e d23e 709c cf3d 2cac a83e 1327 33be
000003c0: 1b54 3cbf 5d14 10bf 2538 62be 256a f23e
000003d0: 7239 793c 7e3b b9bd b1e6 9ebc bcfb f0bf
000003e0: 73a8 de3e 80b1 13be 1af6 273f 9dd3 b9bd
000003f0: 6b79 4b3d 5069 20bd 575c 85bd 6863 56be
-0.2854908 0.6412784 0.27228603 -0.18345211 0.06884701 0.039963044 0.11847403 0.123289734
0.9521004 -0.090067215 -0.40835252 0.032139394 -0.107784264 -0.043498967 -0.3637387 -0.19581564
-0.34156537 0.2534514 0.8284801 -0.336374 -0.6640776 -0.29235643 0.25948444 0.74018544
-0.32374862 0.23247406 -0.20689036 0.3307265 -0.5448955 0.8206725 1.1264517 -0.05259674
0.3319491 0.13794917 0.25433975 -0.205617 -0.26121446 0.08287477 -0.754251 -1.4921228
-0.17580631 0.15151545 0.1690963 0.55072474 -0.086673714 0.34412175 0.24029966 0.12446986
0.09523306 0.109274276 -0.17091389 -0.02711215 -0.10410381 0.014596803 0.035623476 0.3081164
-0.22449724 -0.19282244 -0.33782902 0.2144158 -0.10539948 0.15425014 -0.069502234 0.47529137
0.3830549 0.3278947 -0.30473945 -0.82056 0.6455471 -0.20459116 0.43339142 0.10017312
-0.007848891 -0.20608915 -0.10715417 -0.020610724 -0.490336 -1.2894089 0.3342829 -0.33817777
-0.5124529 0.08443753 0.19343981 0.31310835 -0.025876746 0.0073114685 0.045474105 -0.26565757
0.16163734 -0.18595009 0.3117493 -0.03148896 -0.07267447 -0.21498144 -0.102793194 0.10898945
-0.49323043 -1.7810763 -0.39300817 -0.23049095 -0.24125685 -0.85469884 -0.21698023 0.5258262
0.14203742 -0.06788852 -0.056988735 -1.124902 0.30406514 -0.12106015 0.2842028 -0.3684244
-0.09494403 -0.09298747 -0.17615654 0.14427277 0.6312173 0.35436615 0.7783341 -0.69353133
0.14807206 -0.19161424 -0.11424949 -0.6609803 -0.06786063 0.20004721 -0.124626696 1.4581113
-0.8130803 -0.19269957 -1.371863 -0.013822477 0.025205491 0.12745294 0.54788184 0.5889677
0.25552213 0.0706286 -0.8855312 -0.3032202 -0.27100477 0.54727554 0.021300932 0.35358247
0.20282064 0.12718171 -0.2766649 -1.3547034 1.0269226 0.116571985 0.59110767 0.07277638
0.07423736 0.018438261 -0.06819828 -0.033057448 -0.91862583 -1.4722002 0.31421566 0.47283414
-0.08374116 -0.50626343 0.4055722 -0.9730641 0.07641227 -0.033022743 0.13334304 -0.23077391
0.44632643 0.23997656 -0.681823 -0.0477525 -0.006136683 0.022644548 -0.5706779 -0.2183273
0.3998151 -0.110133074 0.45208326 -0.63490117 0.29733157 0.39249966 0.042412255 0.22561818
-0.12631868 0.043569025 0.070374295 -0.26222503 -0.21867046 0.19111969 0.26337934 -0.029654555
0.029347543 -0.011630537 -0.5091102 0.2033395 -0.313407 0.2671007 -2.1290786 -0.51347387
-0.057887305 0.25515735 0.17021719 0.19202389 -0.024806093 0.3986341 -0.21560211 -0.65329623
0.44056797 0.03343006 0.2693491 -0.019871727 -0.074974544 -0.049081363 -0.3870579 0.21299978
-0.41069898 0.05698935 -0.2968889 0.031611 -0.0075686118 0.29307887 1.3652968 -0.38427195
-0.3642109 -0.11733149 0.25798056 -0.19623196 0.39539003 0.1484841 -0.7165827 0.18222067
-0.118480265 0.16963044 -0.2571867 -0.1686012 0.4112467 0.1013726 0.32943857 -0.17495374
-0.73565835 -0.5628107 -0.2209173 0.47346607 0.01521145 -0.0904455 -0.019397112 -1.8826823
0.43487892 -0.1442318 0.65609896 -0.09073565 0.04967634 -0.039162934 -0.06511753 -0.20936358

_baseline.0.bias f4 [64]
00000000: 6e3e 03bf 4322 4fbe 1d45 3dbe 89e2 b1be
00000010: 2d83 c9be 019b a0be d368 083d 2661 52be
00000020: 587c 9ebe 1303 d8bd c4ac 05bf a10b afbe
00000030: 21db 16bf 986a cebe fa77 09be 24fb 75be
00000040: 1336 47bd cfd0 0f3f b096 09be a9bc d1be
00000050: 05dd 63be 50d5 c8be 638c 69be e049 d3bd
00000060: 2af9 14bf 985b 153d 18e8 afbe 2883 e9be
00000070: 1ca7 9dbe d2d0 07bf 8a62 8e3e c9de 67be
00000080: d78e acbe f982 ce3e f4d4 7ebe f60d 14be
00000090: f572 b3be 1288 9abe 160e 9abe 33c8 d2be
000000a0: 9470 e3be f38e 75bd 06b2 f0be 73cd 88be
000000b0: 5496 84be 8412 01bf 66b3 95be 7a9e d53e
000000c0: 4ea3 ffbd dff2 b8be c112 cfbe ade2 a5be
000000d0: 1449 86be d2a6 c8be 9edd e2be e1b7 04be
000000e0: b29b 59be f52e e7bd 6d0f ef3c fcf3 f5be
000000f0: 0814 d1be b598 54be 7bca c8be 9da0 68be
-0.51267135 -0.20227914 -0.18483396 -0.34743145 -0.39357892 -0.3136826 0.033303093 -0.20544872
-0.30954242 -0.10547461 -0.52216744 -0.3418856 -0.58928114 -0.403157 -0.13424674 -0.24021584
-0.048635554 0.5617799 -0.13436389 -0.4096425 -0.22252281 -0.39225245 -0.2280746 -0.10316825
-0.58192694 0.036464304 -0.3435676 -0.45607877 -0.30791557 -0.5305301 0.27809554 -0.2264358
-0.33702728 0.403343 -0.24885923 -0.1445845 -0.35048643 -0.30181938 -0.30088872 -0.41168365
-0.44421828 -0.05995078 -0.4701082 -0.26719245 -0.2589594 -0.5041888 -0.29238433 0.4172247
-0.1248232 -0.36122796 -0.40443996 -0.32399502 -0.2622763 -0.39189774 -0.44309705 -0.12960769
-0.212508 -0.11288253 0.02918216 -0.48037708 -0.40835595 -0.20761378 -0.3921698 -0.22717519

_baseline.2.weight f4 [64, 64]
00000000: 2682 8abd c5d9 adbd 6972 be3e 8e65 3cbc
00000010: e150 efbd e27e f7bd 69a6 92be c567 59bd
00000020: f810 06be 5b9f 3a3e 1ca3 9d3e bf61 1e3e
00000030: fcfb c4be 4122 903e a57c 283e 2530 a43e
00000040: 70b5 fa3c 70ee 82be 1212 b2be 042d 9c3e
00000050: 2af0 b03b 7356 6d3e 6121 653e a01a 88be
00000060: 4b61 6bbd e356 3bbe 23fa 093d c459 bd3e
00000070: 4313 91bd d62d de3d 456d 6d3e 4669 3ebd
00000080: 864e 863e 7162 3dbd f12b cbbe 8703 6dbc
00000090: 7556 0dbe 33f6 d2bd 8215 bebd ae56 cd3e
000000a0: 2f48 82be b89d 36be f7e1 3a3e 1e67 2a3e
000000b0: fa43 833e 8769 c73e 66f5 43be cf6d 943d
000000c0: ab10 55be 82a8 ad3e dcc7 1e3e 43ce 213f
000000d0: 7de0 54bd 575f b3be f71c ad3e fbae 493d
000000e0: c892 083d f4ff 753e b400 573c 12d7 9e3e
000000f0: 6178 95be a6b7 5e3d 8d59 abbe 1f4f 8a3d
00000100: 1a2c b9be f56d 773e 46fa ba3e c93d 323e
00000110: b306 243e dbd1 1ebe 2e11 0ebf 160c d4be
00000120: a511 bb3b 4436 ee3c a14d 25be 4722 213d
00000130: ac22 87be 46b2 ce3d a773 7a3c e0b1 9e3e
00000140: ceef 0dbe 4b86 94be fb7d 233e c35f 92bd
00000150: 8edd 3c3d 867c 313e dfce bebd 3648 ff3a
00000160: 874a 203e 53da ea3e a2e8 8d3e cbbc cf3e
00000170: b2d2 c43e 6daa 473d 35cf 83bd 553e dcbd
00000180: fc27 c93e 42f5 a6be 5bd4 d5bc 85fc a0bd
00000190: 1315 083e fa5c 963e 9675 253e dfa1 5bbe
000001a0: e50b dd3e e0ea a73e 6c47 af3e a8c9 963c
000001b0: ea6d e93e 755a c23e 5a87 dfbe 5aae 883e
000001c0: 3d13 033e ebfe 2ebe 2a21 01bd d66a 39be
000001d0: f8e5 04be e851 193e b703 943e 05f4 5cbe
000001e0: 4905 e8bc a490 91be ce03 513e 24f5 3ebe
000001f0: 7a3e fe3e 85af 803e e393 11be 9393 da3d
00000200: 537d 983e a7a7 acbe 8a2f 593e 49f3 eebe
00000210: 12e1 ce3e a958 b7be 9906 38be a4cf 02be
00000220: 5799 f3be 0530 f9bc 19aa 953e e31b 153f
00000230: 5a9e cfbd 4a13 893d 9f70 99be 5470 c9be
00000240: 25e8 24bc 9f35 fcbd 9054 5fbe d8c1 2bbd
00000250: b581 b13e d7c8 873d beaa 103f 6c76 11be
00000260: 60ca 4f3e f225 303d 826e bb3e 3249 683d
00000270: b644 b53e 32d5 423f 4282 4f3e 7fb5 32be
00000280: e6f3 793c 6316 1dbf 8475 7e3e 55de 60be
00000290: c24e afbd 31f1 c83e c468 e43d 8c27 d33e
000002a0: ac63 74bd 33bf 693e 519e 803e 54cb d1bb
000002b0: 658b e23e 1e31 523e 79a7 d7be 882b 4c3e
000002c0: 501b 3bbe b479 1c3e 26a2 ca3e 4a96 a23d
000002d0: a114 fabd 4b08 923e 70dc 46be c66a 18bf
000002e0: 16a5 9a3d 370e d8be be0d f9bd e9de e33e
000002f0: 0b72 2f3e f6f0 c63e c81c 943e f37f b2be
00000300: f726 af3e 610b 75be d65f 683e 0e63 393c
00000310: 9d10 383e 7eea e43e 639c abbe de1a 423d
00000320: f095 413e e937 35bd 94a4 0fbd 333f 333e
00000330: 62b9 d33e b000 b23e 22b0 6dbe 26cc c2be
00000340: 4232 d8bc 56e8 edbe 77b4 21be 360f 86bd
00000350: e2b5 b4be 4f07 0bbd c0e1 bfbe 408f c6be
00000360: 6d2d f93e eee0 73be fb1d 7f3e 68f7 803d
00000370: f2d0 66bd 1c90 903e bef3 91be b017 47bf
00000380: 5f9d 6bbd 5f40 5fbf 17f0 be3d 8191 3f3e
00000390: bd9b b93d 286c 4abc b337 ecbe 4e07 70be
000003a0: 4a8d d83d 3383 18bd 50e7 4a3e a021 8d3e
000003b0: 1e56 003f 1707 9d3c 0c3b a23e 8196 8ebf
000003c0: eaae 62bd 89f4 91be 6214 9bbe 4738 6fbd
000003d0: 3982 88bd 372d 03be 940d ab3e f95e e1bd
000003e0: 0f93 263e 5603 2fbe 2619 22bf 87a7 703d
000003f0: bf3d ca3e 27f9 04be 5e79 023f 0c47 1a3c
-0.06763105 -0.08488802 0.37196663 -0.011498822 -0.11685348 -0.12084748 -0.28642586 -0.053077478
-0.1309241 0.18224852 0.30788505 0.15466975 -0.384735 0.28151134 0.16453798 0.3206798
0.030604094 -0.25572538 -0.34779412 0.30503094 0.0053997235 0.23177509 0.22376014 -0.26582813
-0.057465833 -0.18294863 0.033685815 0.36982548 -0.07083752 0.10848586 0.23186214 -0.046487115
0.26231784 -0.04623646 -0.39681962 -0.014466173 -0.13802512 -0.10300865 -0.09281446 0.40105194
-0.25445697 -0.17833602 0.18250261 0.16640899 0.256378 0.38947698 -0.19136581 0.07247507
-0.2080714 0.33917624 0.15505928 0.63205355 -0.0519719 -0.35033676 0.3381116 0.04923914
0.033343107 0.2402342 0.013122726 0.3102346 -0.29193404 0.05437436 -0.3346676 0.067533724
-0.3616646 0.24163039 0.36519068 0.17406382 0.1601818 -0.15509741 -0.55494964 -0.4141547
0.0057088905 0.02907861 -0.16142894 0.03933933 -0.2639364 0.10092597 0.015286363 0.30995083
-0.1386101 -0.29008707 0.15966026 -0.07147171 0.04610973 0.17332658 -0.09316801 0.0019476477
0.1565343 0.45869693 0.27716547 0.40573725 0.38441998 0.048746515 -0.06436006 -0.107540764
0.39288318 -0.32608992 -0.026102236 -0.07860664 0.13289289 0.2936781 0.16158137 -0.21448468
0.43173137 0.32796383 0.34234178 0.018406704 0.4559167 0.37959638 -0.43657953 0.2669552
0.12800308 -0.17089431 -0.03152577 -0.18107161 -0.12978351 0.14972651 0.28909084 -0.21577461
-0.028322833 -0.28430665 0.20411608 -0.18648201 0.4965704 0.2513391 -0.1421657 0.10672679
0.29783115 -0.3372166 0.21209541 -0.46669987 0.4040609 -0.3580983 -0.17971267 -0.12774521
-0.47577927 -0.030418405 0.29231337 0.58245677 -0.10137625 0.06693132 -0.29968736 -0.39343512
-0.010065113 -0.12314915 -0.21809602 -0.04193291 0.3466927 0.06630104 0.5651053 -0.1420533
0.20292044 0.043004937 0.36607748 0.05671043 0.35403985 0.7610656 0.20264533 -0.17452048
0.015255904 -0.61362284 0.24849516 -0.21959813 -0.08559944 0.39246514 0.11152795 0.4124111
-0.059665367 0.22826843 0.25120786 -0.0064024124 0.44246975 0.20526549 -0.4211996 0.19938481
-0.18272138 0.15280801 0.39576834 0.079388216 -0.12210966 0.28521952 -0.19420028 -0.59537923
0.07551019 -0.42198345 -0.12160824 0.44506004 0.17133348 0.38855714 0.28928208 -0.34863243
0.34209415 -0.23930122 0.22692809 0.01131512 0.17975087 0.44710153 -0.3351775 0.047388904
0.18904853 -0.044242773 -0.035069063 0.17504577 0.41352373 0.3476615 -0.2321172 -0.38046378
-0.026391152 -0.4646632 -0.15791498 -0.0654587 -0.35295016 -0.033942517 -0.3747692 -0.38781166
0.4866747 -0.23816273 0.2491378 0.06297189 -0.05635161 0.28234947 -0.28506273 -0.7777052
-0.057523128 -0.872076 0.09323137 0.18707849 0.09062908 -0.012354888 -0.46136245 -0.23440287
0.10573824 -0.037234496 0.19814801 0.27564716 0.50131404 0.01916842 0.31685674 -1.113968
-0.055342592 -0.28506878 -0.30288988 -0.05840328 -0.06665463 -0.12810217 0.33408797 -0.11004443
0.16267036 -0.17091116 -0.63319623 0.058753517 0.39500234 -0.12985669 0.5096644 0.009416353

_baseline.2.bias f4 [64]
00000000: cef7 87be 3251 9ebe f4c6 81be 4f35 60be
00000010: 3bff 92be dc65 abbe 9e11 57be 56b9 d8be
00000020: f190 8bbe 8971 c6be 1ae9 c6be c753 b9be
00000030: fc03 f5be 5816 6fbe d514 01bf f04e 02bf
00000040: 596a e4be db1f a1be bfc3 3bbe c744 9fbe
00000050: 5b21 40be 9483 eabe 71d0 dfbc 6478 f5be
00000060: e6e5 ce3c 3fd2 bcbe 2f4d aabe 08b9 e7be
00000070: 6166 29be 0a47 c1be e7df dbbe 0173 f5be
00000080: 3d1e dfbe c3a2 f9be 21d1 55be 8688 02be
00000090: a9a3 a1be 400d be3e b908 afbe 18ff f8be
000000a0: 09c9 bfbe 0ac6 073e 38a9 d3be 08a6 98be
000000b0: 8e6c 83be 10e5 6a3c ddc0 ecbe 3c36 3abe
000000c0: 28a2 f5bd dc1b 82be a16a 46be 455c 04bf
000000d0: 2e81 4bbd 4b6d babb c886 2dbe 6b57 06bf
000000e0: a489 2abe 2025 7cbe 0388 f7be 6e77 81be
000000f0: 45d6 c2be 0271 eebe d2b9 d2be 40ea a4be
-0.26556247 -0.30921322 -0.25347102 -0.21895336 -0.2871035 -0.3347615 -0.21002814 -0.423289
-0.2725902 -0.38758495 -0.38849717 -0.3619673 -0.47854602 -0.23348367 -0.5042241 -0.509017
-0.44612387 -0.31469616 -0.1833639 -0.3110716 -0.18762724 -0.4580351 -0.027321072 -0.47943413
0.025256108 -0.36879155 -0.3326201 -0.45258355 -0.1654296 -0.3774951 -0.4294426 -0.47939304
-0.43577757 -0.4875699 -0.20880558 -0.12747392 -0.31570175 0.37119484 -0.34186342 -0.4863212
-0.37458065 0.1325914 -0.4134004 -0.29814172 -0.25668758 0.014336839 -0.46240893 -0.18184751
-0.119938195 -0.2541188 -0.19376613 -0.5170329 -0.049683742 -0.0056892983 -0.16945946 -0.5247714
-0.16654068 -0.24623537 -0.48345956 -0.2528643 -0.380541 -0.46570593 -0.41157395 -0.3220997

_baseline.4.weight f4 [1, 64]
00000000: df5d 183c 520f c9bc 6012 473d 84f8 103d
00000010: 0d3a 92be d6d6 08bd af1b 72bc 021c 563a
00000020: b92f dcbc 751c a63d f62d 44bd 5719 bc3c
00000030: 74fc 4dbb 3825 1fbd 3b5c 8e3d 7e62 cfbb
00000040: ca6b 97bd a44f 76bc 491f 1e3d 06c9 9e3c
00000050: 1177 3dbc 21c8 aebd e723 e63d 0b84 d43c
00000060: b37c a2bc 32e6 38bd edcb f0bb 7c23 d93a
00000070: 5d7b 0fbc 0d2b 6cbd 2c6f 683c b63e 8abd
00000080: 4f10 6f3d 5480 28bd 29d2 ad3c 777b 3cbd
00000090: 9c82 0fbd 68cc 7f3e c617 893c 18ec 19bd
000000a0: 2828 87bb acd7 e83d 1bd6 33bd 5c71 69bc
000000b0: faa1 3fbe 8f69 4abd 9f1b 9ebe b9ce e6bb
000000c0: dfcd 313d 910c 2dbd b867 15ba c891 debc
000000d0: a94a b33c d9d4 323c 7ab0 3b3d 4028 0bbd
000000e0: 09d0 c73c f34d a0bd 77e9 5ebd 989c 35bd
000000f0: cb90 913c 8bdd a5bd d6bf 11bd c4ab bc3c
0.009299724 -0.024543438 0.04860151 0.035393253 -0.28559914 -0.03340801 -0.014777108 0.00081676256
-0.026878225 0.081108965 -0.047895394 0.022961302 -0.0031430991 -0.038853854 0.06951185 -0.00632888
-0.07393606 -0.015033636 0.038604055 0.019382965 -0.011564032 -0.08534265 0.112373166 0.02594187
-0.019834852 -0.045141406 -0.0073485286 0.0016566361 -0.008757439 -0.057658244 0.014186662 -0.067502424
0.058365162 -0.04113801 0.021218376 -0.046016183 -0.03503667 0.24980319 0.016734969 -0.037578672
-0.00412466 0.11369261 -0.04390536 -0.014248218 -0.18714133 -0.049417075 -0.30880448 -0.007043686
0.043409225 -0.042248312 -0.0005699354 -0.027169123 0.021886187 0.010915005 0.045822598 -0.033973932
0.024391191 -0.07827368 -0.05442187 -0.044338793 0.017769238 -0.080988966 -0.03558334 0.023031123
