data/hw4_q4_widowx_normal_k10_widowx_02-04-2024_10-43-59/agent.pt (torch, 46718 bytes, 12 tensors)

_std f4 [8]
0	0x3dcccccd	0.1
1	0x3dcccccd	0.1
2	0x3dcccccd	0.1
3	0x3dcccccd	0.1
4	0x3dcccccd	0.1
5	0x3dcccccd	0.1
6	0x3dcccccd	0.1
7	0x3dcccccd	0.1

_mean_net.0.weight f4 [64, 13]
0	0xbe68a11c	-0.22717708
1	0xbcef2bcd	-0.02919569
2	0xbe1f5ffc	-0.15563959
3	0xbd22dcc4	-0.03976132
4	0xbe8fe16c	-0.2810167
5	0x3dbb7245	0.091526546
6	0xbe81b604	-0.2533418
7	0x3ba46961	0.005017445
8	0x3e0f4e74	0.13994771
9	0xbdd5a892	-0.10432543
10	0x3e44fa68	0.19236147
11	0x3788fe38	1.6330843e-05
12	0x3e3ff132	0.18744352
13	0x3e3c20b0	0.18371844
14	0xbe2caafe	-0.16862103
15	0x3da7da0a	0.081958845
16	0xbde8d376	-0.11368458
17	0x3e2a4dd2	0.16631249
18	0xbe2ad43e	-0.16682526
19	0x3decf9a4	0.11571053
20	0x3db08f39	0.086210676
21	0xbdbb774f	-0.09153616
22	0xbe153ebd	-0.14574714
23	0x3da6697e	0.0812559
24	0x3e7f35fc	0.24922937
25	0x3e121b5f	0.14268254
26	0xbd461726	-0.04836192
27	0xbd11165a	-0.035421707
28	0x3e27dcb9	0.16392793
29	0xbe4aa6dc	-0.19790214
30	0x3e022789	0.12710394
31	0xbdbb939e	-0.09159015
32	0x3e1880e7	0.14892922
33	0xbdadd630	-0.08488119
34	0x3c903eea	0.017608125
35	0x3da6bc4f	0.08141386
36	0x3e3bffb4	0.18359262
37	0xbd0aa56a	-0.033849157
38	0x3e7bfc80	0.2460804
39	0xbe64839b	-0.22315829
40	0xbd282a92	-0.041056223
41	0xbe8e94f6	-0.27848023
42	0x3d1637df	0.036674377
43	0x3d975ac3	0.07390358
44	0xbdf71724	-0.120649606
45	0x3dffd87d	0.12492464
46	0xbd2f22be	-0.042757742
47	0xbe80f63a	-0.25187856
48	0x3e607191	0.21918322
49	0x3e3c2078	0.18371761
50	0x3e02794a	0.1274158
51	0x3e6f9e22	0.23400167
52	0x3e0e8dfe	0.13921353
53	0x3e2f855f	0.17140721
54	0x3e6b19dc	0.22959083
55	0xbccf14a3	-0.025278395
56	0xbe849107	-0.25891897
57	0xbe30bd76	-0.17259774
58	0xbc866c89	-0.016409175
59	0xbd328622	-0.04358495
60	0xbbfc7f0d	-0.0077055753
61	0x3e47bbd0	0.19505239
62	0x3dfc13ed	0.12308488
63	0xbe74d717	-0.23910175
64	0xbd49da2a	-0.049280323
65	0xbd70b3b7	-0.05876514
66	0x3e6856cc	0.2268936
67	0xbdb62aa0	-0.08894849
68	0xbdd8aacd	-0.10579453
69	0xbdf6a0a4	-0.120423585
70	0xbd82b2e7	-0.06381779
71	0xbd801db0	-0.062556624
72	0xbe9296d6	-0.28630704
73	0x3e805d27	0.2507107
74	0x3e23c66d	0.15993662
75	0xbdff25c4	-0.12458375
76	0xbe380e8a	-0.17974296
77	0x3c85192e	0.016247358
78	0x3e0e9176	0.13922676
79	0xbe7f267c	-0.24917024
80	0xbde3a4ee	-0.11115442
81	0x3dca6971	0.098833926
82	0xbde1681a	-0.11006184
83	0xbd0a167e	-0.033712856
84	0xbe52a704	-0.20571524
85	0x3e8b42fe	0.27199548
86	0x3e0f8e8e	0.14019224
87	0xbe8b5f8f	-0.27221343
88	0xbe2c7da2	-0.168448
89	0x3de88b38	0.11354679
90	0xb814c746	-3.5471538e-05
91	0x3dab67db	0.08369418
92	0xbe7f8820	-0.24954271
93	0xbe238a76	-0.15970787
94	0x3e148f6c	0.14507836
95	0xbe2fde97	-0.17174755
96	0xbd9dc881	-0.07704259
97	0x3dd9d7e1	0.10636879
98	0x3e2b899c	0.16751713
99	0x3d6a435a	0.057193138
100	0x3da3f3ed	0.080055095
101	0x3e12e695	0.14345773
102	0xbd570796	-0.05249747
103	0xbd63f603	-0.055654537
104	0x3e6fe6d6	0.234279
105	0x3ea3a285	0.3195993
106	0x3df0da96	0.11760442
107	0xbdc17a6f	-0.094471805
108	0xbea457e0	-0.32098293
109	0xbe8f86a5	-0.28032413
110	0x3c6c47ce	0.014421416
111	0xbde92e28	-0.11385757
112	0xbd8018a2	-0.06254698
113	0xbc49222b	-0.012276213
114	0x3e911529	0.28336456
115	0x3e77a3e3	0.24183612
116	0xbba29c85	-0.0049625062
117	0xbda1e5bd	-0.07905147
118	0x3e0bb435	0.13642962
119	0xbcdbf8e4	-0.026852079
120	0xbe82a633	-0.25517425
121	0x3d9c94b3	0.076455496
122	0x3e88b9a9	0.26704147
123	0xbe622a9d	-0.22086568
124	0xbd8aeb04	-0.06783107
125	0x3d859a0c	0.06523523
126	0xbe653ca4	-0.22386414
127	0xbe6e5946	-0.23276243
128	0x3e4f5143	0.20245843
129	0xbdbf918f	-0.09353935
130	0x3e1e93c3	0.15486054
131	0x3c685c19	0.014182114
132	0x3d96e743	0.073683284
133	0xbe428b2e	-0.18998405
134	0xbd7da756	-0.061927162
135	0x3e436180	0.19080162
136	0x3df03030	0.11727941
137	0xbd992160	-0.07477069
138	0x3d18e29f	0.037325498
139	0x3e5211ea	0.20514646
140	0xbe7ec2b8	-0.24878967
141	0x3e3c58bd	0.18393226
142	0xbdb6af83	-0.08920195
143	0xbcdb5d0c	-0.026777767
144	0x3e343a52	0.17600372
145	0xbe765ebc	-0.24059576
146	0xbc547484	-0.012967233
147	0x3e5ce99f	0.21573494
148	0x3db2764a	0.08713968
149	0xbde6cc87	-0.11269479
150	0xbd97b398	-0.07407302
151	0x3e7e99c4	0.24863344
152	0x3df6dea6	0.120541856
153	0x3e5d3c48	0.21605027
154	0xbe539390	-0.2066176
155	0x3ddd15d9	0.10795183
156	0x3d67fdba	0.056638457
157	0x3d41c063	0.047302615
158	0x3e850c83	0.25986108
159	0x3e2c2699	0.16811599
160	0x3e598d1b	0.21245234
161	0x3dd924f6	0.10602753
162	0x3df37f88	0.11889559
163	0xbd1c6211	-0.03817946
164	0xbe64e1d4	-0.22351772
165	0xbe690d31	-0.22758938
166	0xbe1f84f4	-0.15578061
167	0xbe495f6e	-0.1966531
168	0x3e171af2	0.14756373
169	0x3ddc10b3	0.107453726
170	0xbddae128	-0.106874764
171	0xbe649efc	-0.22326273
172	0x3e90f5b4	0.28312457
173	0x3e8be1b2	0.2732063
174	0x3ddedbbe	0.10881756
175	0x3e83170e	0.25603527
176	0xbdf0cbac	-0.11757597
177	0xbe00cd1a	-0.1257824
178	0xbe2a5992	-0.16635731
179	0x3b21f8e4	0.0024715
180	0xbe858b87	-0.26083013
181	0x3e712cb3	0.23552208
182	0x3c99839e	0.018739518
183	0x3e0a2ebc	0.1349439
184	0xbe2cc4a8	-0.16871893
185	0xbc903007	-0.017601026
186	0x3d2501bc	0.040284857
187	0xbda5621f	-0.08075356
188	0x3e7f6542	0.2494097
189	0xbded5948	-0.11589295
190	0x3defea3e	0.117146
191	0xbe5115d4	-0.20418483
192	0xbcb979b3	-0.022641039
193	0xbdab6bcc	-0.0837017
194	0x3e04fb7e	0.12986562
195	0x3e5aa32a	0.21351305
196	0x3d902e69	0.07040102
197	0xbcc1d14e	-0.023659375
198	0xbd901e2a	-0.07037003
199	0x3e5cacb7	0.2155026
200	0xbd969c1d	-0.07353995
201	0x3e46a249	0.19397844
202	0xbe03204f	-0.12805294
203	0x3e673f15	0.22582658
204	0x3e8fef34	0.28112185
205	0x3e490481	0.19630624
206	0x3e1cab30	0.15299678
207	0x3de0045b	0.10938331
208	0xbe205ec4	-0.1566115
209	0x3bc89f5b	0.0061225123
210	0x3df6b1e4	0.12045649
211	0xbdb70318	-0.08936137
212	0x3d088c71	0.03333706
213	0x3e3453c6	0.17610082
214	0xbe7895b7	-0.24275862
215	0xbe83e493	-0.25760326
216	0xbe495912	-0.19662884
217	0x3d0ffd8e	0.035153918
218	0xbd8e239e	-0.06940387
219	0x3d9f7a49	0.07786996
220	0xbdacfe53	-0.08446946
221	0xbe38e18b	-0.18054788
222	0x3d0d94f1	0.03456587
223	0x3e42291a	0.18960992
224	0xbe31e035	-0.17370684
225	0x3e7a4491	0.24440219
226	0x3d8a75c8	0.06760746
227	0x3e89dc13	0.26925716
228	0xbe821bec	-0.25411928
229	0xbe833f47	-0.25634214
230	0x3dc21d65	0.09478263
231	0xbe861e67	-0.2619507
232	0xbe655362	-0.2239509
233	0x3e0d0426	0.13771114
234	0x3e02c42c	0.12770146
235	0xbe81244d	-0.25223008
236	0x3e4a6dc3	0.19768433
237	0xbd7c6564	-0.06162013
238	0x3e4c464d	0.19948693
239	0xbe1f0b61	-0.15531684
240	0xbe82ca65	-0.2554504
241	0xbe374614	-0.17897826
242	0xbd431402	-0.047626503
243	0xbe8dbb3e	-0.27681917
244	0xbcd45c8f	-0.025923042
245	0xbe069162	-0.13141397
246	0xbd929c67	-0.07158738
247	0xbc21bd59	-0.009871804
248	0x3b849446	0.004045996
249	0xbe956554	-0.2917887
250	0x3e10e63e	0.1415033
251	0xbe2d0423	-0.1689611
252	0x3e32a249	0.1744472
253	0x3e7c6be9	0.2465054
254	0xbdc41fd3	-0.095763825
255	0x3d0b8c0e	0.034069113

_mean_net.0.bias f4 [64]
0	0xbda41d43	-0.08013394
1	0x3cf09a46	0.029370438
2	0x3df8a936	0.121416494
3	0xbe441b6b	-0.19151084
4	0xbe24fd45	-0.1611224
5	0x3e32c809	0.1745912
6	0x3de58b87	0.11208253
7	0x3da0c07b	0.07849213
8	0x3e0dafe2	0.13836625
9	0x3d17f4d2	0.037098713
10	0xbdce6652	-0.1007811
11	0xbc870a89	-0.016484516
12	0xbd645efa	-0.05575464
13	0xbdcf1a06	-0.101123855
14	0xbe226472	-0.1585863
15	0xbd11c46f	-0.035587724
16	0xbe4a1f83	-0.19738583
17	0xbe279a21	-0.1636739
18	0xbe38fc46	-0.18064985
19	0x3e825593	0.25455913
20	0x3e87cb77	0.2652242
21	0x3e3c9868	0.18417513
22	0xbd6412fd	-0.05568217
23	0x3daeda8f	0.085377805
24	0x3e042148	0.12903321
25	0x3d889d3e	0.066706166
26	0x3e14329b	0.1447243
27	0x3dc5803c	0.096435994
28	0x3ddd8166	0.108156964
29	0x3e8c8979	0.27448633
30	0xbe6cea02	-0.23136142
31	0xbae66bd9	-0.0017579749
32	0x3e68022a	0.22657076
33	0x3e656f98	0.22405851
34	0xbdb01930	-0.08598554
35	0x3e450c75	0.19243033
36	0xbe24a850	-0.16079831
37	0xbc9d8ad1	-0.019231232
38	0x3e768a25	0.24076135
39	0xbce95e60	-0.028487384
40	0x3e133eaa	0.14379373
41	0x3e8f8009	0.2802737
42	0xbdb56651	-0.08857406
43	0x3e08db02	0.13364795
44	0xbda7fcc2	-0.082025066
45	0xbd563f8b	-0.052306693
46	0x3e59678c	0.21230906
47	0x3df66434	0.12030831
48	0xbe7e4003	-0.24829106
49	0x3e8acfe1	0.27111724
50	0x3e37a30b	0.1793329
51	0x3e0a64b2	0.13514975
52	0x3c489e73	0.0122448085
53	0x3e0e11ee	0.13874027
54	0xbd74bce8	-0.059750468
55	0xbd9c66f7	-0.076368265
56	0x3e1260a4	0.14294678
57	0x3cceb63e	0.025233384
58	0x3e84a64b	0.2590812
59	0x3ca6f850	0.020382077
60	0xbc64f9e0	-0.0139755905
61	0x3e278b5e	0.16361758
62	0xbe0c9592	-0.13728932
63	0xbe7bfe0c	-0.2460863

_mean_net.2.weight f4 [64, 64]
0	0xbbe166d4	-0.006878713
1	0x3e121cbf	0.14268778
2	0xbdb5e591	-0.08881677
3	0x3bada8e5	0.005299675
4	0xbdea5b66	-0.11443214
5	0xbdd354b7	-0.103188924
6	0x3ce74a56	0.028233688
7	0xbcbcf593	-0.023066318
8	0xbd39a379	-0.045321915
9	0x3d08d6f6	0.033408128
10	0xbd0b1221	-0.033952836
11	0x3d35f9a4	0.04442753
12	0xbc58f579	-0.013242119
13	0x3dd5cf90	0.1043998
14	0x3d4b75f3	0.049673032
15	0xbce2766d	-0.02764436
16	0xbdebd55b	-0.11515304
17	0x3d97c4be	0.074105725
18	0xbc5aaf7f	-0.013347506
19	0x3d6e5a72	0.058191724
20	0xbd14b649	-0.036306653
21	0x3dda0575	0.10645572
22	0x3dc82e64	0.09774473
23	0x3cb6c8db	0.022312572
24	0x3d4fd95a	0.050744392
25	0x3d3932cd	0.045214463
26	0x3cfa8e5a	0.030585457
27	0x3c066498	0.008202694
28	0xbda90105	-0.082521476
29	0xbd5b58d7	-0.05355152
30	0xbb07d472	-0.0020725993
31	0xbdf06c6f	-0.11739432
32	0xbe1295f2	-0.14315012
33	0xbd47be7c	-0.048765644
34	0x3d86c982	0.06581403
35	0x3c99e7b1	0.018787237
36	0xbdb003ea	-0.085944965
37	0xbdc5f2a1	-0.096654184
38	0xbd265803	-0.04061128
39	0xbdb10c6a	-0.08644946
40	0x3de65613	0.11246886
41	0xbdba3fca	-0.09094198
42	0xbd4532c3	-0.048144113
43	0xbdaf41c1	-0.085574634
44	0xbd282206	-0.041048072
45	0x3dfab16e	0.12240873
46	0x3d166800	0.036720276
47	0xbcaee87a	-0.021351088
48	0xbe0eaa7e	-0.13932225
49	0x3d8c81bf	0.068606846
50	0x3defc577	0.11707585
51	0x3c8dad3f	0.017294524
52	0x3d7edabd	0.062220324
53	0xbcf1d529	-0.029520588
54	0xbdd05d8e	-0.10174094
55	0xbc68697b	-0.014185305
56	0x3d586ff0	0.052841127
57	0xbd38555f	-0.04500329
58	0x3caac64c	0.020846508
59	0x3d1a6042	0.037689455
60	0x3dda27b2	0.106521025
61	0xbd8f7635	-0.07004968
62	0xbddd622c	-0.108097404
63	0xbd972517	-0.07380121
64	0x3d9b6d78	0.07589239
65	0xbcf17268	-0.029473498
66	0x3c2ffded	0.010741693
67	0xbda895dd	-0.08231709
68	0xbdc1b610	-0.09458554
69	0xbdf099e4	-0.11748102
70	0x3d8282cd	0.063726045
71	0x3dd31caa	0.103082016
72	0xbd1cd6ff	-0.038290974
73	0xbccfccc6	-0.025366198
74	0x3c64fa67	0.013975716
75	0x3b8ccf28	0.004297156
76	0x3c90cc3a	0.017675508
77	0x3d87f39d	0.066382624
78	0x3daeddc0	0.08538389
79	0x3da0a56f	0.07844054
80	0x3c322ac2	0.010874452
81	0x3df0cfa7	0.117583565
82	0xbde083e5	-0.10962657
83	0xbd97d9f1	-0.07414616
84	0x3dfb5b44	0.12273267
85	0x3e07b142	0.13251212
86	0xbd2d7bdc	-0.04235445
87	0x3df57199	0.11984558
88	0x3b44a522	0.0030005653
89	0xbc26102f	-0.010135694
90	0xbc304c8e	-0.01076044
91	0xbc41162b	-0.01178507
92	0x3d7f34e8	0.062306315
93	0x3d47c701	0.04877377
94	0xbcdbff97	-0.026855273
95	0xbd46e7ab	-0.04856078
96	0x3d9dcdf9	0.07705302
97	0xbd424e99	-0.047438238
98	0xbb3e489f	-0.0029034985
99	0x3defe2ff	0.11713218
100	0xbda106be	-0.07862614
101	0xbdbc32da	-0.09189387
102	0x3d80a4d1	0.06281436
103	0xbdcc640e	-0.099800214
104	0xbcd6d1dc	-0.026223116
105	0x3dc0f6a5	0.09422044
106	0x3db080c3	0.08618309
107	0x3dbc2571	0.09186829
108	0xbdf94ed7	-0.12173241
109	0xbdf44c14	-0.11928573
110	0x3d259d82	0.040433414
111	0x3d05e79b	0.03269158
112	0xbdb02cc1	-0.08602286
113	0x3d867f16	0.065672085
114	0x3c1191a2	0.008884819
115	0xbce3738c	-0.027765058
116	0x3dc0801e	0.093994364
117	0x3dfa1982	0.122118965
118	0x3e0e93bb	0.13923542
119	0xbd551f32	-0.052031703
120	0x3a423add	0.0007409284
121	0xbd7d0ad9	-0.061777923
122	0x3df07fbd	0.11743114
123	0x3e13da8f	0.14438842
124	0xbd94f3d6	-0.072730705
125	0x3cdf3ea6	0.027251553
126	0x3dcb83c0	0.09937239
127	0xbb8c2cc8	-0.0042777993
128	0xbd842b8d	-0.06453619
129	0xbc79b959	-0.015241944
130	0xbdb1a8d9	-0.08674783
131	0x3df5227c	0.11969468
132	0xbd8a1450	-0.067421556
133	0x3c89d066	0.016823005
134	0xbde47056	-0.11154239
135	0x3c2eacd0	0.010661319
136	0x3da0f218	0.07858676
137	0xbdd93740	-0.10606241
138	0x3d33e7a7	0.043922093
139	0xbb6416b3	-0.003480357
140	0x3d9053ff	0.07047271
141	0xbd6ee8bf	-0.058327433
142	0xbd99a144	-0.07501462
143	0xbd746f70	-0.059676588
144	0xbc9159b6	-0.017742973
145	0x3de1767c	0.11008927
146	0xbc1beeb0	-0.009517357
147	0xbdcc6125	-0.09979466
148	0xbda0c8ed	-0.078508236
149	0xbd0b1367	-0.03395405
150	0xbd2b8354	-0.04187329
151	0xbc3aa17f	-0.011391043
152	0xbd6c62f0	-0.05771154
153	0xbd818dfd	-0.0632591
154	0x3d210eb1	0.03932065
155	0x3d0864a2	0.033299096
156	0xbd225f68	-0.039641768
157	0x3d3ca1c1	0.046052698
158	0xbd6657c5	-0.056236047
159	0x3bc68dea	0.006059398
160	0xbcb1c935	-0.021702388
161	0x3b360276	0.0027772463
162	0x3db70ff3	0.08938589
163	0xbd3dc423	-0.04632963
164	0x3df03256	0.11728351
165	0xbc6cc1c5	-0.014450495
166	0xbdb2a199	-0.087222286
167	0x3d136e6c	0.03599398
168	0x3d054af2	0.032542177
169	0x3e02593b	0.12729351
170	0x3db8ef46	0.09030013
171	0xbe032d68	-0.1281029
172	0x3dbe5f67	0.0929554
173	0x3de0221d	0.109440066
174	0x3d73fc2d	0.059566665
175	0xbb29d33c	-0.002591326
176	0x3e03d1d5	0.12873013
177	0xbab90e6d	-0.0014118679
178	0xbb92b493	-0.0044770925
179	0xbc3ef463	-0.011654946
180	0x3d923882	0.07139684
181	0xbc36007d	-0.011108515
182	0x3cb1dd09	0.021711843
183	0xbd2f4361	-0.042788867
184	0xba4e0af0	-0.0007859906
185	0x3d8434ec	0.064554065
186	0x3d7431a1	0.059617642
187	0x3de8b8bd	0.11363361
188	0x3c9a3315	0.018823186
189	0xbe019fc1	-0.12658598
190	0xbda5d177	-0.08096593
191	0xbd5af0b0	-0.053452194
192	0x3d4e2d01	0.050335888
193	0xbdf1f386	-0.118140265
194	0x3dcc7eec	0.09985146
195	0x3de3219a	0.11090393
196	0xbdb38cb6	-0.08767073
197	0xb9f2a77f	-0.0004628263
198	0xbd8dea62	-0.069294706
199	0xbd85ddd4	-0.06536451
200	0x3e1316b8	0.14364135
201	0xbd681d0c	-0.056668326
202	0x3d421fd5	0.04739364
203	0x3da01086	0.078156516
204	0x3c5b24ab	0.013375442
205	0xbda073b1	-0.078345664
206	0x3b65b4af	0.0035050323
207	0xbcd6d3fa	-0.026224125
208	0x3df76a73	0.120808505
209	0x3da2e54c	0.07953891
210	0x3c7eb22c	0.015545409
211	0x3da19b08	0.07890898
212	0xbdc06763	-0.093947195
213	0x3da014e9	0.07816488
214	0x3d8983a1	0.06714559
215	0x3df713ba	0.120643094
216	0xbce71520	-0.028208315
217	0xbda82734	-0.082106024
218	0x3dd5107e	0.10403536
219	0x3df97403	0.121803306
220	0x3c4c8b9f	0.01248446
221	0x3c7b2e80	0.015330911
222	0x3dedcb20	0.11611009
223	0xbdc4e692	-0.0961429
224	0xbd0d2680	-0.034460545
225	0xbdd700e3	-0.10498216
226	0x3d924462	0.07141949
227	0x3da9c12e	0.08288799
228	0xbda4fbbf	-0.08055829
229	0xbc47046a	-0.0121470485
230	0xbdeda2eb	-0.1160334
231	0x3dda6067	0.106629185
232	0x3dbdcdb2	0.09267749
233	0x3d417168	0.047227293
234	0x3c01f9e3	0.007933113
235	0x3d3307f7	0.043708768
236	0x3de4e9d4	0.11177412
237	0x3d7c58b2	0.061608024
238	0xbdb46c1a	-0.08809681
239	0x3d2c3989	0.042047057
240	0x3dad1721	0.08451677
241	0x3dbbe429	0.091743775
242	0xbda34193	-0.07971492
243	0xbdb7f8a0	-0.08982968
244	0x3d97522b	0.07388719
245	0x3dbca438	0.0921101
246	0xbdacac30	-0.0843128
247	0xbdb66093	-0.08905139
248	0x3d791224	0.060808316
249	0xbd694888	-0.056953937
250	0x3d9659e3	0.07341363
251	0x3d814a1b	0.063129626
252	0x3dc6d627	0.09708815
253	0xbc2a9141	-0.010410608
254	0xbc39d6e4	-0.011342738
255	0xbddf4072	-0.10900964

_mean_net.2.bias f4 [64]
0	0x3e0b50dd	0.13605066
1	0xbc0054dc	-0.007832732
2	0x3d19a204	0.037508026
3	0x3ccc9470	0.024973124
4	0xbda9daf6	-0.082937166
5	0x3d3fb43c	0.046802744
6	0xbdaa0174	-0.083010584
7	0xbde50dc8	-0.11184269
8	0x3c54f91a	0.012998844
9	0xbd7c8740	-0.061652422
10	0xbd6133e4	-0.054981127
11	0xbda2b767	-0.079451375
12	0xbde43274	-0.11142436
13	0x3c252b3e	0.0100811105
14	0x3d8c509c	0.068513125
15	0x3d25cee5	0.040480513
16	0x3d1d54b0	0.038410842
17	0x3dd030d6	0.10165565
18	0x3c620135	0.013794233
19	0xbdaf3c88	-0.08556467
20	0x3e08d150	0.13361096
21	0xbd8ec728	-0.0697158
22	0x3da6d415	0.0814592
23	0x3de1dd82	0.110285774
24	0x3dc621af	0.096743934
25	0x3da77ff6	0.081787035
26	0xbdafe8b7	-0.08589309
27	0xbd62535f	-0.05525529
28	0x3dae051b	0.084970675
29	0x3e133bd3	0.1437829
30	0x3beda194	0.0072519276
31	0x3c85d22d	0.016335571
32	0xbdd00e19	-0.10158939
33	0x3db180cb	0.086671434
34	0xbdb0f942	-0.08641292
35	0x3ddaa2c7	0.106755786
36	0xbe05bd95	-0.13060601
37	0xbd715e0c	-0.05892758
38	0x3d0dc378	0.03461024
39	0xbd162b36	-0.036662303
40	0x3cab6c2c	0.020925604
41	0xbdae6216	-0.08514802
42	0x3ccd591e	0.025066908
43	0x3d990f64	0.07473639
44	0xbda389f1	-0.079852946
45	0x3bbd34e5	0.005774128
46	0x3dd628a0	0.10456967
47	0x3e042648	0.12905228
48	0x3dfc88ae	0.12330757
49	0xbc833c57	-0.016019983
50	0x3dee603b	0.11639448
51	0x3d7a663a	0.061132647
52	0x3ca676dc	0.020320348
53	0x3dde378b	0.10850438
54	0x3e039d92	0.12853077
55	0xbd35e004	-0.04440309
56	0xbce8c058	-0.02841203
57	0xbddb6f40	-0.10714579
58	0x3dea79f2	0.114490405
59	0xbd86d3c2	-0.06583358
60	0xbcbf0089	-0.023315685
61	0xbd56f7b6	-0.05248233
62	0xbd9ec662	-0.07752682
63	0xbcb059ad	-0.021527136

_mean_net.4.weight f4 [8, 64]
0	0x3defb3c8	0.117042124
1	0xbc4558b5	-0.012045075
2	0xbc3bc95f	-0.011461585
3	0xbd52884d	-0.051399518
4	0xbdc64294	-0.096806675
5	0xbcff93c4	-0.03119839
6	0xbdae0f15	-0.084989704
7	0x3e1fc51a	0.15602532
8	0xbd6fca20	-0.05854237
9	0x3d994726	0.074842736
10	0x3dc836ae	0.09776054
11	0x3a947d77	0.0011328895
12	0x3c92f3a8	0.01793845
13	0xbbce25f1	-0.006291144
14	0xbd3401b9	-0.043946955
15	0xbc8b2b5f	-0.016988454
16	0xbb88ddab	-0.0041768155
17	0xbd4eb758	-0.05046782
18	0xbda8b845	-0.082382716
19	0xbd958ea6	-0.07302599
20	0x3def3c2f	0.11681401
21	0x3da793c5	0.08182482
22	0x3ca47e43	0.020079738
23	0x3d018aab	0.031626385
24	0xbdbb0367	-0.09131508
25	0xbde77d4a	-0.11303194
26	0xbddf55ed	-0.10905061
27	0x3cb8396f	0.022488324
28	0x3d459ccf	0.048245247
29	0xbd0049f0	-0.031320512
30	0xbda2b750	-0.0794512
31	0xbb960e88	-0.004579369
32	0x3b1075c1	0.0022042843
33	0xbc7d8445	-0.01547343
34	0xbce96586	-0.028490793
35	0x3dd40d14	0.10354057
36	0xbd762645	-0.06009509
37	0x3ded0018	0.115722835
38	0x3d2c5ab5	0.042078692
39	0x3c82ff95	0.015991012
40	0xbc2863b1	-0.0102776745
41	0x3d81b3e9	0.06333143
42	0x3dd0d658	0.10197133
43	0xbd01b377	-0.03166529
44	0xbb6fd104	-0.003659309
45	0x3d14fb12	0.03637225
46	0xbe061f09	-0.13097776
47	0x3d6c543c	0.05769752
48	0x3d4de282	0.050264843
49	0xbdba690b	-0.091020666
50	0xbdeea8be	-0.11653279
51	0xbdb65a95	-0.08903996
52	0x3dcb79e0	0.09935355
53	0x3dacf40e	0.08444987
54	0xbdaa0388	-0.08301455
55	0x3d9e2058	0.07721013
56	0xbd04a67a	-0.032385327
57	0x3d479866	0.048729323
58	0xbdcbf51a	-0.09958859
59	0xbd9a25c4	-0.075267345
60	0xbd8b4d20	-0.0680182
61	0x3cf5dbcd	0.030012036
62	0x3ccb0bb4	0.024785854
63	0xbd94c040	-0.07263231
64	0xbddde82e	-0.108353004
65	0xbe16912c	-0.14703816
66	0xbdc04191	-0.09387506
67	0x3de65f69	0.11248667
68	0xbd832e98	-0.064053714
69	0xbd671162	-0.056413062
70	0xbda55a5c	-0.08073875
71	0xbd846588	-0.06464678
72	0xbdc4d217	-0.09610384
73	0x3dab6ad2	0.08369984
74	0xbe002c3b	-0.12516873
75	0x3d0c129e	0.034197442
76	0x3e04f378	0.12983501
77	0xbdfc6b31	-0.12325133
78	0xbdda13e6	-0.106483266
79	0x3d5a8ce7	0.05335703
80	0xbdc0373a	-0.09385534
81	0xbd29ff32	-0.04150314
82	0xbe04cd56	-0.12968954
83	0xbdee0e25	-0.116237916
84	0x3df00098	0.11718863
85	0xbdcb20f4	-0.09918395
86	0xbaee4a1b	-0.0018180044
87	0x3dda0daf	0.10647141
88	0xbe06ca90	-0.13163209
89	0xbc04b96d	-0.00810085
90	0x3c219a5a	0.00986346
91	0x3d20b545	0.039235372
92	0x3da7c02a	0.08190949
93	0x3cbeb88e	0.023281362
94	0xbc3474ce	-0.0110141765
95	0xbc30e797	-0.010797403
96	0x391fe71a	0.00015249514
97	0xbda552a2	-0.080724016
98	0x3e0811ef	0.13288091
99	0x3bc7d718	0.006098639
100	0x3db265dd	0.08710835
101	0xbd89b0e6	-0.06723194
102	0xbdfa07a1	-0.12208486
103	0x3d918540	0.071054935
104	0xbc533de7	-0.012893177
105	0x3e216a9d	0.15763326
106	0xbddd847a	-0.108162835
107	0x3d249edd	0.040190566
108	0x3dba93e7	0.091102414
109	0xbdf37c9a	-0.11889
110	0xbdbab7f4	-0.091171175
111	0x3da4ef4f	0.08053457
112	0xbdedb54a	-0.11606844
113	0x3dda3682	0.10654928
114	0xbd003988	-0.031304866
115	0xbe0061d1	-0.12537314
116	0x3d730baf	0.059337314
117	0x3d9940d6	0.074830696
118	0xbd88eceb	-0.066858135
119	0x3d2fd86f	0.042931017
120	0x3e35966c	0.17733163
121	0x3cf2a617	0.029620213
122	0x3c9c74ec	0.019098721
123	0x3d9c789b	0.07640191
124	0x3c50ffae	0.012756271
125	0x3d7d67f2	0.061866708
126	0xbd335892	-0.04378564
127	0xbd979f1f	-0.07403397
128	0xbd3e42b0	-0.046450317
129	0x3ddce72b	0.10786279
130	0x3cd91398	0.0264986
131	0xbb99c773	-0.0046929657
132	0xbd79fd29	-0.061032448
133	0x3e12bffa	0.14331046
134	0x3cb44e8f	0.022010116
135	0xbd69658d	-0.056981612
136	0xbb83078e	-0.0039987033
137	0xbddcedfe	-0.10787581
138	0x3c9b8852	0.018985901
139	0xbd61a88b	-0.055092376
140	0x3b94ecfc	0.0045448523
141	0x3ceba6ef	0.028766124
142	0xbdb3a5e9	-0.08771879
143	0x3d74227b	0.059603196
144	0x3d9720bf	0.07379293
145	0x3c27ea96	0.010248801
146	0xbcaac291	-0.02084473
147	0x3d99e079	0.07513518
148	0x3e0e91f2	0.13922861
149	0xbc0ae20d	-0.008476746
150	0x3e27da1d	0.16391797
151	0x3ca8f73a	0.0206257
152	0xbd1253a8	-0.035724312
153	0x3dd0bb51	0.10191978
154	0x3dd53924	0.10411289
155	0xbda8fe50	-0.08251631
156	0x3d816499	0.063180156
157	0x3dbcd0e8	0.09219533
158	0xbca44716	-0.020053428
159	0xbd93fc8f	-0.07225906
160	0xbb43c815	-0.0029873897
161	0xbcf52e32	-0.029929254
162	0x3c25acd5	0.010112007
163	0xbc2f3ebe	-0.010696111
164	0xbd5a6490	-0.05331856
165	0x3d1ef14e	0.038804345
166	0x3c2d7da1	0.010589034
167	0xbe232114	-0.15930587
168	0xbc2627f8	-0.010141365
169	0xbc9a9207	-0.01886846
170	0xbd8405c4	-0.06446412
171	0xbd82e85f	-0.063919775
172	0xbc2deca0	-0.010615498
173	0x3d3d591c	0.04622756
174	0xbd837231	-0.06418265
175	0x3e19cbfb	0.15019219
176	0xbbbaee80	-0.005704701
177	0xbcb11d19	-0.02162032
178	0xbd5cfc2a	-0.05395142
179	0x3da99082	0.08279516
180	0x3d7c6548	0.061620027
181	0xbd39d836	-0.04537221
182	0xbc94bc33	-0.018156147
183	0xbe09246e	-0.13392803
184	0xbdc7008f	-0.097169034
185	0xbe157902	-0.14596942
186	0xbc805bd8	-0.015668795
187	0xbd4a2e50	-0.049360573
188	0x3d9096bf	0.070600025
189	0xbd46ab92	-0.048503466
190	0xbda2f71c	-0.079572886
191	0x3d11d6a8	0.035605103
192	0xbde5f640	-0.11228609
193	0xbc8e3046	-0.017357003
194	0xbd04f653	-0.032461476
195	0xbe1c03b0	-0.15235782
196	0x3dbeb273	0.0931138
197	0xbd6ced1b	-0.05784331
198	0xbd1c3242	-0.038133867
199	0xbd14eb93	-0.036357474
200	0x3d793de2	0.06085003
201	0x3ccac7f7	0.024753554
202	0x3cccfac9	0.025021927
203	0x3d7e9924	0.062157765
204	0x3dd55736	0.10417025
205	0xbd85957f	-0.06522655
206	0xbdd2274c	-0.102614015
207	0xbd7245f7	-0.059148755
208	0xbbd28619	-0.006424677
209	0x3d9de39c	0.07709429
210	0x3ddbc9e4	0.10731867
211	0xbc9079a3	-0.017636126
212	0xbcf6b710	-0.030116588
213	0xbd891347	-0.0669313
214	0x3d0335c7	0.032033708
215	0xbd84ebb8	-0.06490272
216	0xbbddfa4c	-0.0067742225
217	0xbcd16423	-0.025560444
218	0x3ba6bf70	0.005088739
219	0xbe0b00cf	-0.13574527
220	0xbdc4d256	-0.09610431
221	0xbe163326	-0.14667949
222	0x3db6b258	0.08920735
223	0x3d89092e	0.06691204
224	0x3e043be9	0.12913479
225	0xbdeac3ba	-0.11463113
226	0x3dd094d1	0.101846345
227	0x3ddd8726	0.10816793
228	0x3bf0868b	0.0073402575
229	0xbdb9a26c	-0.09064183
230	0xbcf879df	-0.03033155
231	0x3dfa4e5a	0.122219756
232	0x3cdbfabb	0.026852956
233	0xbe1c5acc	-0.15269011
234	0x3b2d9167	0.0026484372
235	0x3d98ea5d	0.07466576
236	0xbdd1f525	-0.10251836
237	0xbe21019d	-0.15723272
238	0x3d1924b2	0.03738851
239	0xbdc192b9	-0.09451813
240	0xbd3e7b01	-0.046504024
241	0xbdcf1333	-0.10111084
242	0x3d0fda26	0.035120152
243	0xbe069227	-0.1314169
244	0x3d40e424	0.04709257
245	0xbdb256da	-0.08707972
246	0xbd65e183	-0.056123268
247	0xbd6f847e	-0.058475964
248	0xbdc467de	-0.095901236
249	0x3cb66d60	0.022268951
250	0xbe260f7b	-0.16216843
251	0x3db14132	0.08655013
252	0xbd8fe231	-0.070255645
253	0xbd929ef8	-0.07159227
254	0x3d9f456a	0.077769116
255	0x3af48eaa	0.001865824

_mean_net.4.bias f4 [8]
0	0xbd53d05b	-0.051712375
1	0xbdb37b28	-0.087637246
2	0xbdad9a9f	-0.08476757
3	0x3d78306e	0.06059306
4	0xbdf19131	-0.11795271
5	0x3cbaf3e2	0.02282137
6	0xbd84329b	-0.06454965
7	0x3dd876e2	0.1056955

_baseline.0.weight f4 [64, 13]
0	0xbd2eec64	-0.04270591
1	0xbe03e048	-0.12878525
2	0xbc13b7d7	-0.009015999
3	0xbebed7b2	-0.37273937
4	0xbe375bb7	-0.1790608
5	0x3da92fd3	0.08261075
6	0x3da2c4cd	0.07947693
7	0x3e5c71b3	0.21527748
8	0xbd7c19cc	-0.06154804
9	0x3e90d5d9	0.28288153
10	0x3e0c3910	0.13693643
11	0xbe0f1da9	-0.13976158
12	0xbe8b9d8c	-0.27268636
13	0x3ec2ee5a	0.38072473
14	0xbee87e26	-0.45408744
15	0xbeb85f66	-0.36010283
16	0x3d83689b	0.06416436
17	0xbdda706e	-0.106659755
18	0x3ea31afb	0.31856522
19	0xbebe4575	-0.37162367
20	0xbdd613ed	-0.10453019
21	0xbea371f1	-0.31922868
22	0xbed20510	-0.41019487
23	0x3ea49509	0.32144955
24	0xbea367bb	-0.31915078
25	0xbd746e39	-0.05967543
26	0xbe6688fd	-0.22513194
27	0x3d999df5	0.07500831
28	0xbe73a01b	-0.23791544
29	0xbe811dfb	-0.25218186
30	0x3ecfe5f6	0.40605134
31	0xbf11bfbb	-0.5693318
32	0xbe8bdbdd	-0.2731618
33	0x3e4eab0d	0.20182438
34	0x3c2b07f3	0.010438907
35	0xbeee4be3	-0.46542272
36	0x3d90ee06	0.07076649
37	0x3dddc9a0	0.108294725
38	0xbe0f90e4	-0.14020115
39	0xbe82ca64	-0.25545037
40	0xbd062ee3	-0.03275956
41	0x3e99303b	0.2991961
42	0x3e5da3f2	0.21644571
43	0xbe297ec7	-0.16552268
44	0x3da43e91	0.08019746
45	0x3e903a38	0.28169417
46	0xbe27a0e0	-0.16369963
47	0x3eaea5ad	0.34110776
48	0xbdab90ea	-0.083772495
49	0xbe910e31	-0.2833114
50	0xbe6ff133	-0.23431854
51	0x3e12ceb9	0.14336671
52	0x3e800205	0.2500154
53	0x3d8caa2b	0.068683945
54	0xbe101e7a	-0.14074126
55	0xbf0d33df	-0.55157274
56	0x3ed1a34c	0.40944898
57	0xbea5d7b5	-0.32391134
58	0x3e016f39	0.12640084
59	0xbed119fe	-0.40840143
60	0xbe9c18a8	-0.3048756
61	0x3e471ed4	0.19445354
62	0x3e0bbb32	0.13645628
63	0x3e1047d3	0.14089899
64	0x3de0e33c	0.109808415
65	0xbd95f51b	-0.07322141
66	0xbd1d228c	-0.038363025
67	0x3e348034	0.1762703
68	0x3aad408b	0.0013218088
69	0xbe1c72bc	-0.15278143
70	0x3ea544c2	0.3227902
71	0x3e735e47	0.23766433
72	0xbe78e65c	-0.24306625
73	0xbe861fcb	-0.2619613
74	0x3e488733	0.19582824
75	0x3e58514e	0.21124765
76	0xbd3acc35	-0.045604903
77	0xbe097eac	-0.13427228
78	0x3c678277	0.014130226
79	0xbdbcf26b	-0.09225925
80	0xbe191802	-0.14950565
81	0xbe47d675	-0.19515403
82	0x3ed4d99f	0.41572282
83	0xbedd9ce3	-0.43283758
84	0x3e43a6ab	0.19106548
85	0xbeb08a38	-0.34480453
86	0xbde5fedb	-0.112302504
87	0x3e2a2f51	0.16619612
88	0xbec0630f	-0.37575576
89	0x3e44efba	0.19232073
90	0xbee05348	-0.4381354
91	0xbbb98bea	-0.005662431
92	0xbe3a53ca	-0.18196025
93	0xbd3f39b9	-0.046685908
94	0xbdf560b2	-0.11981334
95	0xbddea6a5	-0.10871629
96	0x3eb85c8f	0.36008117
97	0xbdc695e1	-0.09696556
98	0x3f0a383b	0.5399205
99	0x3f1e1d1a	0.61763155
100	0xbe82d10a	-0.2555011
101	0xbe4747e0	-0.19461012
102	0xbd3cd4e6	-0.046101473
103	0xbe818bd1	-0.25301984
104	0x3e693b1d	0.22776456
105	0x3eb27957	0.348582
106	0xbcce1dcc	-0.025160693
107	0xbea69f01	-0.32543185
108	0xbd899cf0	-0.067193866
109	0xbeb63117	-0.35584328
110	0x3f0ce737	0.55040306
111	0x3d1fb061	0.038986567
112	0xbcc50503	-0.024050241
113	0x3cd67966	0.026180934
114	0xbe6e7e8b	-0.2329046
115	0x3e3bd092	0.18341282
116	0x3dc13dc3	0.09435608
117	0xbee86c12	-0.4539495
118	0xbd6d2d02	-0.05790425
119	0x3b21a11c	0.002466268
120	0xbd8d6fe6	-0.069061086
121	0xbd18c865	-0.037300486
122	0xbe5d378b	-0.21603219
123	0xbebcf964	-0.3690902
124	0xbcf2933c	-0.029611222
125	0x3e175cac	0.14781445
126	0x3f01f8ad	0.50770074
127	0x3daad185	0.08340744
128	0x3eba62b1	0.3640342
129	0x3d8fbe34	0.070187
130	0x3cb4fc80	0.022093058
131	0x3de8d04e	0.11367856
132	0xb9561852	-0.0002041769
133	0xbe64bbda	-0.22337285
134	0xbeb55e3d	-0.3542346
135	0xbe224999	-0.15848388
136	0x3ddd964d	0.10819683
137	0xbd955a69	-0.07292635
138	0xbe9397ea	-0.2882684
139	0x3ecf549d	0.40494242
140	0x3e60977f	0.21932791
141	0x3e8119ce	0.25215
142	0x3d0c4533	0.03424568
143	0xbe1fdddf	-0.15611981
144	0x3d859f4d	0.06524525
145	0x3d6ee54c	0.058324143
146	0x3dc28366	0.094977185
147	0xbe03d9d1	-0.12876059
148	0x3f34177a	0.7034832
149	0xbbe7e13b	-0.00707641
150	0xbe1ead51	-0.15495802
151	0x3cfe02a2	0.031007115
152	0x3c1f6d80	0.009730697
153	0x3d895a4b	0.06706675
154	0xba9f7332	-0.0012165068
155	0x3ed6ea2d	0.41975537
156	0xbdb0ff9f	-0.08642506
157	0x3e7fccff	0.24980544
158	0xbe620c03	-0.22074895
159	0xbebd62fb	-0.3698958
160	0x3ec1fa08	0.3788607
161	0xbdafae83	-0.08578207
162	0xbef2bbb0	-0.4740882
163	0xbec2b9e2	-0.38032442
164	0xbd79d93c	-0.060998186
165	0xbe9713c1	-0.2950726
166	0xbe93cb4e	-0.28866047
167	0x3e50503b	0.20343105
168	0x3ab5510b	0.0013833357
169	0xbe2f51b7	-0.17121015
170	0xbd8fde89	-0.07024867
171	0x3df55282	0.11978628
172	0xbe838f1b	-0.25695118
173	0x3cc58c38	0.024114713
174	0x3e941800	0.2892456
175	0x3e911e2a	0.28343326
176	0x3e327eca	0.17431179
177	0x3ea38521	0.31937507
178	0x3e63398b	0.2218992
179	0x3bda16cd	0.00665555
180	0x3ec48d26	0.38388938
181	0xbe0ab27e	-0.13544652
182	0xbe2c3b08	-0.16819394
183	0x3f36ccf3	0.7140648
184	0xbdcfd98d	-0.101489164
185	0x3e51de5a	0.20494977
186	0xbf754f0b	-0.95823735
187	0x3e7ca8f5	0.24673827
188	0x3da3c4e3	0.079965375
189	0xbd683a12	-0.056696005
190	0x3e7911fe	0.2432327
191	0xbefb0b97	-0.4903228
192	0x3d82c916	0.0638601
193	0xbe6744b2	-0.22584799
194	0xbcd45e53	-0.025923884
195	0xbedabb0e	-0.42720836
196	0xbece5c53	-0.40304813
197	0xbd088734	-0.033332065
198	0x3e396951	0.18106581
199	0xbe170ddb	-0.14751379
200	0xbca15a3a	-0.019696344
201	0x3d8dd567	0.06925469
202	0xbe8749e8	-0.26423573
203	0xbecbc485	-0.3979837
204	0xbe342619	-0.17592658
205	0xbe4c97d1	-0.19979788
206	0x3e566968	0.20938647
207	0x3e9f5d25	0.3112575
208	0xbec338a8	-0.38129163
209	0x3e82dfa9	0.25561264
210	0xbd53f26a	-0.051744856
211	0xbe465f31	-0.1937225
212	0xbe05a210	-0.13050103
213	0xbe1702cc	-0.1474716
214	0xbef08d0d	-0.46982613
215	0x3d8a7faf	0.06762635
216	0x3d127f43	0.035765897
217	0xbeec9d18	-0.46213603
218	0xbea16bcf	-0.31527564
219	0x3e78f740	0.24313068
220	0xbd8bd326	-0.06827383
221	0xbe5a69e6	-0.2132946
222	0x3d7c499c	0.061593637
223	0xbdb6ef50	-0.08932364
224	0xbe989f70	-0.2980914
225	0xbe87b820	-0.26507664
226	0xbe775ac0	-0.24155712
227	0x3f3f8dd7	0.74825805
228	0x3eb2329d	0.3480424
229	0xbdcb2a47	-0.09920173
230	0x3e8486de	0.25884145
231	0xbe03a64b	-0.12856404
232	0x3e8efc26	0.2792675
233	0x3e17c579	0.14821424
234	0xbdfdf1fb	-0.1239967
235	0xbe01d436	-0.12678608
236	0x3d5f360c	0.054494902
237	0x3e6fd1f4	0.23419935
238	0x3e7aa3bc	0.24476522
239	0xbcf532fa	-0.029931534
240	0x3d221f27	0.03958049
241	0x3e2c0d76	0.1680201
242	0xbadbd1f0	-0.001677094
243	0xbe5c27f8	-0.21499622
244	0xbead9fc3	-0.3391095
245	0x3ef5585f	0.47918984
246	0xbecb95b4	-0.39762652
247	0x3e11c8e4	0.1423679
248	0xbd1b4879	-0.037910912
249	0xbdc86944	-0.09785703
250	0xbe983c49	-0.29733494
251	0x3da3207c	0.0796518
252	0xbd1051b6	-0.035234176
253	0xbe0eb67b	-0.13936798
254	0xbe86eef6	-0.26354188
255	0xbdbd6fdc	-0.09249851

_baseline.0.bias f4 [64]
0	0xbd0ac15b	-0.033875804
1	0x3d4f5a29	0.050623093
2	0xbe85dc8b	-0.26144823
3	0xbe59eeae	-0.21282455
4	0xbe9dbd95	-0.30808702
5	0xbe45c3ab	-0.19312923
6	0xbee69525	-0.45035663
7	0x3d8d70b9	0.06906266
8	0xbe66fc68	-0.22557223
9	0xbe9f83de	-0.31155294
10	0xbe8f86e2	-0.28032595
11	0x3ed7097e	0.4199943
12	0x3c92a991	0.017903121
13	0xbe1dc20a	-0.15406051
14	0xbdfbef06	-0.123014495
15	0x3d284684	0.041082874
16	0x3d7b125f	0.061296817
17	0xbc42dfea	-0.011894206
18	0xbdaef3f0	-0.08542621
19	0x3bfb3d21	0.0076671992
20	0xbe909d3b	-0.28244957
21	0xbdc3d582	-0.09562208
22	0xbe452d6a	-0.19255605
23	0xbda66248	-0.081242144
24	0xbea99931	-0.33124688
25	0xbdfccd1d	-0.1234381
26	0xbd45c05c	-0.04827915
27	0x3e72da00	0.23715973
28	0x3dc286a2	0.094983354
29	0xbd861c79	-0.065483995
30	0x3cbf8a8a	0.02338149
31	0xbce58805	-0.02801896
32	0xbe279cc3	-0.16368394
33	0xbe39f4f9	-0.18159856
34	0x3d2fd15f	0.04292428
35	0x3e41e5b4	0.18935281
36	0xbddfeab1	-0.10933436
37	0xbed592cb	-0.41713557
38	0xbccc5804	-0.024944313
39	0xbd12e334	-0.03586121
40	0xbbadeb8e	-0.0053076213
41	0x3d981666	0.07426147
42	0xbe8113a5	-0.252103
43	0xbe9f235f	-0.31081674
44	0xbe9eca36	-0.3101365
45	0xbed98544	-0.42484486
46	0xbf16f741	-0.5897103
47	0xbdc0dcda	-0.09417124
48	0xbea81c06	-0.3283388
49	0xbdb1a9a8	-0.086749375
50	0x3c9d6b22	0.019216124
51	0xbc85566a	-0.016276557
52	0x3dd39d48	0.103327334
53	0xbdf9cc47	-0.12197166
54	0xbe097434	-0.13423234
55	0x3d1f9cca	0.038967885
56	0x3ed4f227	0.41590998
57	0xbe9b8ab8	-0.30379272
58	0xbc8699df	-0.016430793
59	0x3d7dc3fa	0.061954476
60	0xbce18300	-0.027528286
61	0xbea4dcbd	-0.3219966
62	0xbe8ae63f	-0.2712879
63	0xbb6b9aff	-0.003595054

_baseline.2.weight f4 [64, 64]
0	0xbd95fc7f	-0.073235504
1	0x3db7e493	0.08979144
2	0x3ea4bf83	0.32177362
3	0xbe47c622	-0.19509175
4	0xbe944299	-0.2895706
5	0xbae0586b	-0.0017116194
6	0x3c8f3534	0.017481424
7	0x3ecc20f5	0.39868894
8	0xbd8af7cc	-0.06785545
9	0xbe93f775	-0.28899732
10	0xbe6716c0	-0.22567272
11	0xbe7d75c6	-0.24751958
12	0xbdf17da2	-0.11791541
13	0x3d3276c2	0.043570288
14	0x3eedbb0e	0.46431774
15	0xbdc0a589	-0.09406573
16	0x3d0f6f52	0.035018273
17	0x3cb4d862	0.022075836
18	0x3e90d47d	0.28287116
19	0x3d87b674	0.06626597
20	0x3ecf7c2b	0.4052442
21	0xbcbf67f3	-0.023364997
22	0x3ed99708	0.4249804
23	0x3e62f146	0.22162351
24	0xbe6f7136	-0.2338303
25	0x3e7ac4d9	0.24489154
26	0xbd05a861	-0.03263128
27	0xbe79666c	-0.24355477
28	0x3c86ec86	0.016470205
29	0x3e57f080	0.21087837
30	0xbdd138f1	-0.10215939
31	0x3e8ba660	0.27275372
32	0xbee95e26	-0.45579642
33	0x3ea79235	0.32728735
34	0x3d4a67e5	0.049415488
35	0x3f11b993	0.5692379
36	0xbe2db006	-0.16961679
37	0x3e7596a1	0.23983242
38	0xbea6c905	-0.3257524
39	0x3ec37acb	0.3817962
40	0x3e078cba	0.13237277
41	0xbeb54440	-0.35403633
42	0xbe5bceb6	-0.21465573
43	0x3efd9129	0.4952481
44	0x3e4904ec	0.19630784
45	0x3ebcec10	0.3689885
46	0x3e8e626e	0.2780947
47	0x3f32a608	0.69784594
48	0x3e2c3de7	0.16820489
49	0x3e3d8eb3	0.18511467
50	0xbf21a903	-0.63148516
51	0xbd0d3ecd	-0.03448372
52	0xbf39d3a4	-0.7258856
53	0x3de26422	0.11054255
54	0x3dcfabae	0.10140167
55	0x3e4244cc	0.18971556
56	0xbe3c4b7f	-0.18388174
57	0x3e1dc55e	0.15407321
58	0xbe1a2240	-0.15052128
59	0xbd806af0	-0.06270397
60	0xbe41c64f	-0.18923305
61	0x3dd89bac	0.10576567
62	0xbd2df7b9	-0.042472575
63	0xbcf0a451	-0.029375227
64	0x3df6c2f1	0.12048901
65	0x3d965ed6	0.07342307
66	0x3ea31a55	0.31856027
67	0xbdc65361	-0.09683872
68	0xbe455469	-0.19270481
69	0x3ddd4d47	0.10805755
70	0x3d222444	0.039585367
71	0xbccb5816	-0.024822276
72	0xbd833a86	-0.06407647
73	0xbe14718f	-0.14496444
74	0x3d1daba8	0.038493782
75	0xbcd2220d	-0.025651002
76	0xbd9bd3cd	-0.07608757
77	0xbc334a94	-0.010943074
78	0xbe3f3c88	-0.18675435
79	0xbd670d5d	-0.05640923
80	0x3b0869e1	0.0020815062
81	0x3d9f5f06	0.07781796
82	0x3d19a1e5	0.03750791
83	0x3c683618	0.014173053
84	0x3b5dfa63	0.0033871166
85	0x3ca8f955	0.020626703
86	0xbe23e9b4	-0.1600712
87	0xbd9a1308	-0.07523161
88	0xbe09e4b8	-0.13466156
89	0x3dbfbb66	0.09361915
90	0x3c7fea9d	0.015619901
91	0x3d7a94be	0.061177008
92	0xbc43994c	-0.011938404
93	0xbd2e6638	-0.042577952
94	0xbb5e5f34	-0.0033931257
95	0x3d8818e3	0.06645372
96	0x3c1b42e7	0.0094764
97	0x3d71928b	0.058977645
98	0x3ce5fb7e	0.028074022
99	0xbde39f72	-0.11114396
100	0xbdffa0a2	-0.1248181
101	0xbdaeea66	-0.08540802
102	0x3e10f351	0.14155318
103	0x3c9618f4	0.018322445
104	0xbe3415b2	-0.17586401
105	0xbdd5c7ae	-0.104384765
106	0x3c942fb2	0.01808915
107	0xbd56e840	-0.052467585
108	0x3e8f0abc	0.27937877
109	0xbd8aeeaa	-0.06783803
110	0xbbd85dfc	-0.0066030007
111	0xbe75a730	-0.23989558
112	0x3d844030	0.06457555
113	0x3c54d6f5	0.012990703
114	0xbe2050ac	-0.15655774
115	0xbdac6298	-0.08417243
116	0x3d0118a4	0.03151764
117	0x3dd4231e	0.103582606
118	0x3cc2a6d1	0.023761185
119	0xbe115214	-0.14191467
120	0xbb34f392	-0.0027611
121	0xbe12aa3c	-0.14322752
122	0x3d9b5982	0.07585432
123	0xbe26c695	-0.1628669
124	0x3d81375b	0.06309386
125	0xbe197904	-0.1498757
126	0x3de6c715	0.11268441
127	0x3d7b8c4d	0.061413098
128	0x3e083c49	0.13304247
129	0xbde94c2a	-0.1139148
130	0xbe9ac438	-0.30227828
131	0xbeaf9a00	-0.3429718
132	0xbe6b4415	-0.2297519
133	0xbd2c3af7	-0.04204842
134	0x3e7af8ab	0.24508922
135	0xbcd3c5af	-0.025851099
136	0xbe1ee99c	-0.15518802
137	0x3de945aa	0.113902405
138	0x3e097fc8	0.13427651
139	0x3c994772	0.018710826
140	0xbc1aac81	-0.009440542
141	0xbc0e9236	-0.008701852
142	0xbd9c4f79	-0.07632346
143	0xbe0a5ba9	-0.13511528
144	0x3e049068	0.12945712
145	0xbd36072b	-0.04444043
146	0x3cf94444	0.03042806
147	0x3e025268	0.12726748
148	0xbe9b0114	-0.3027426
149	0xbe2fe70a	-0.17177978
150	0xbe93441f	-0.2876291
151	0xbd828e86	-0.063748404
152	0x3db826a8	0.08991748
153	0xbd8bedc0	-0.068324566
154	0xbde06ad4	-0.10957876
155	0xbdd3d832	-0.1034397
156	0x3d1eab15	0.038737375
157	0xbd860efb	-0.06545826
158	0x3d2a2348	0.041537553
159	0xbdbb7521	-0.091532
160	0x3cd2b514	0.02572111
161	0xbe51f611	-0.20504023
162	0xbdef0946	-0.11671691
163	0xbe4c24a5	-0.19935854
164	0x3d14447f	0.036198135
165	0x3c6212b4	0.0137984045
166	0x3d9a976e	0.07548414
167	0xbc05d4e8	-0.008168437
168	0x3c91cb1f	0.017797051
169	0x3e5e0685	0.21682175
170	0xbe43f74e	-0.19137308
171	0xbdec8985	-0.11549667
172	0x3e067c49	0.13133349
173	0x3c5a07b6	0.0133075025
174	0x3e4a1130	0.19733119
175	0xbea0f443	-0.31436357
176	0xbe0592f1	-0.13044335
177	0x3e54cfd4	0.20782405
178	0x3da7051e	0.08155273
179	0x3cecb35d	0.02889412
180	0x3d8830ab	0.06649908
181	0x3da800c9	0.08203275
182	0xbd9dfbdc	-0.07714054
183	0xbd0e6a5e	-0.03476941
184	0xbe4f08b3	-0.20218162
185	0x3e472601	0.19448091
186	0xbdcb5add	-0.0992944
187	0xbd2d73b4	-0.04234667
188	0xbe678ba0	-0.22611856
189	0x3e20e292	0.1571143
190	0xbe3e4790	-0.18581986
191	0x3d6060a5	0.054779667
192	0xbe017faa	-0.12646356
193	0xbea51204	-0.32240307
194	0x3d97d080	0.07412815
195	0xbdbbfbcb	-0.09178885
196	0x3da87a56	0.08226459
197	0x3d80f11c	0.06295988
198	0xbcdc054f	-0.026858
199	0x3ca0c7c5	0.019626508
200	0x3d2bf2e6	0.041979693
201	0x3d4e9859	0.05043826
202	0xbe23797a	-0.15964308
203	0xbe95a254	-0.2922541
204	0xbd902d22	-0.070398584
205	0x3e193ccd	0.149646
206	0xbd91ec6a	-0.071251705
207	0xbd6a90c6	-0.057266973
208	0x3c36c626	0.011155641
209	0xbdf176c8	-0.11790234
210	0x3dfab744	0.122419864
211	0x3d2c3854	0.042045906
212	0xbceb7370	-0.028741568
213	0x3e66f8ef	0.22555898
214	0x3e2b424f	0.16724513
215	0xbd5a7662	-0.053335555
216	0xbe65786a	-0.22409216
217	0xbe3bd575	-0.18343146
218	0xbdeecac3	-0.116597675
219	0x3dabb246	0.08383612
220	0xbe5d7826	-0.21627864
221	0xbbb200f7	-0.005432244
222	0xbe0c51c6	-0.13703069
223	0x3b72cf3b	0.0037049789
224	0xbde0325b	-0.109471045
225	0xbe0bcdfd	-0.13652797
226	0xbe523e1f	-0.2053151
227	0xbe2bc65e	-0.1677489
228	0xbc26b507	-0.010174996
229	0x3e13a682	0.14418986
230	0x3c59b644	0.013288084
231	0x3d053dbb	0.032529574
232	0x3dd99df2	0.10625829
233	0x3dd8a577	0.10578435
234	0x3d1ef6a3	0.03880943
235	0xbb94057c	-0.0045172554
236	0x3e0d60e4	0.13806492
237	0x3e0adeee	0.13561603
238	0x3e98bc91	0.29831365
239	0x3d008efd	0.031386364
240	0x3e1b4f64	0.15167004
241	0x3c86d402	0.016458515
242	0x3c1fdb65	0.009756898
243	0xbce1f70f	-0.027583627
244	0x3ce53123	0.027977532
245	0x3cff4942	0.031162862
246	0x3d6e414d	0.058167744
247	0x3e3fcb83	0.18729977
248	0xbe9a2818	-0.30108714
249	0xbd3881f4	-0.045045808
250	0x3af46688	0.0018646279
251	0xbcb90c55	-0.022588888
252	0xbc3e030f	-0.011597409
253	0xbdb72e85	-0.0894442
254	0x3d6ec92f	0.058297332
255	0xbd3f43c6	-0.046695493

_baseline.2.bias f4 [64]
0	0xbe65c8ac	-0.22439831
1	0xbe1ce07d	-0.1532001
2	0xbe02ad20	-0.12761354
3	0xbd95b04d	-0.07309017
4	0xbe8db1ab	-0.27674612
5	0xbe55ce1c	-0.20879406
6	0xbe17da63	-0.14829402
7	0xbe28e8c0	-0.16495037
8	0xbcf5ecda	-0.030020166
9	0xbe60bca3	-0.21946959
10	0xbe353408	-0.1769563
11	0xbd0362c7	-0.032076623
12	0xbda738c5	-0.08165125
13	0xbd896dd7	-0.067104034
14	0xbea29a2f	-0.31758258
15	0xbd401b5b	-0.04690109
16	0xbe5405dd	-0.20705362
17	0x3e6e6968	0.23282397
18	0xbd43c542	-0.04779554
19	0xbd88936a	-0.06668742
20	0x3e0b5b0e	0.13608953
21	0xbcd62775	-0.026141861
22	0xbdade4db	-0.08490916
23	0x3bfd70d3	0.007734397
24	0xbd9a85b8	-0.07545036
25	0x3cf5fa77	0.030026658
26	0xbd04566f	-0.032308992
27	0xbe23f989	-0.16013159
28	0xbe17fce6	-0.14842567
29	0xbe5b9003	-0.21441655
30	0xbe3be3be	-0.18348595
31	0xbe7caad8	-0.24674547
32	0xbd91cf5c	-0.07119629
33	0xbe4b84a9	-0.19874825
34	0xbe49f785	-0.19723327
35	0x3d2280a6	0.03967347
36	0xbecb5cf7	-0.39719364
37	0xbda9743f	-0.08274125
38	0xbed04bb2	-0.4068275
39	0xbe54e8c5	-0.2079192
40	0xbdc46af1	-0.0959071
41	0xbe80758b	-0.25089678
42	0xbe5c95cc	-0.21541518
43	0xbc9ff982	-0.019528154
44	0x3cbf02da	0.02331679
45	0xbe109330	-0.14118648
46	0xbe56a183	-0.2096005
47	0xbee80f1f	-0.45324036
48	0xbe751d77	-0.23937021
49	0xbe36d0cf	-0.17853092
50	0x3d084579	0.03326938
51	0xbdecd898	-0.115647495
52	0xbd31f939	-0.043450568
53	0xbde8b2a3	-0.11362197
54	0xbd0faefb	-0.035078984
55	0xbdbaa269	-0.091130085
56	0xbdcd3ff6	-0.10021965
57	0x3e3f8f14	0.18706924
58	0xbe26614e	-0.16248056
59	0xbcdd432a	-0.027009565
60	0xbe55c72f	-0.20876764
61	0xbe8cdd0e	-0.275124
62	0xbeb67018	-0.35632396
63	0xbe45c834	-0.19314653

_baseline.4.weight f4 [1, 64]
0	0xbe1d2342	-0.15345481
1	0x3bfe4433	0.007759595
2	0x3d1396bd	0.036032427
3	0xbd7da627	-0.061926033
4	0xbe44c5a4	-0.19216019
5	0x3c49664f	0.012292459
6	0x3d4e900a	0.050430335
7	0xbd14340a	-0.03618244
8	0x3c874336	0.01651154
9	0xbd3d89b0	-0.046273887
10	0xbcbaa12a	-0.022781927
11	0x3c5c5dec	0.013450127
12	0x3e15555f	0.14583348
13	0xbdb10ce3	-0.08645036
14	0xbcceeca1	-0.025259318
15	0x3c08b4ce	0.008343888
16	0x3db49a23	0.08818462
17	0x3e36e88d	0.17862149
18	0x3d57481e	0.05255901
19	0x3d0f3a12	0.03496749
20	0x3ee46979	0.4461172
21	0x3db9a227	0.09064131
22	0x3d8f2c03	0.069908164
23	0x3c7754b4	0.015095878
24	0x3d46332d	0.04838865
25	0x3decec85	0.1156855
26	0xbe382f5e	-0.17986819
27	0x3cfb730c	0.030694507
28	0xbc974bb1	-0.01846871
29	0xbe29c5f3	-0.16579418
30	0x3e4227e8	0.18960536
31	0xbdf718b2	-0.12065257
32	0xbd0607fc	-0.03272246
33	0xbd008ccf	-0.031384286
34	0xbdb3f2e7	-0.08786564
35	0x3e3fd705	0.18734367
36	0xbdbbc1c7	-0.091678195
37	0x3de9aceb	0.114099346
38	0xbec6c705	-0.38823715
39	0x3c0685c4	0.008210603
40	0x3d327a84	0.04357387
41	0xbe1550cb	-0.14581601
42	0x3dc8c4c9	0.09803159
43	0x3c933c71	0.017973157
44	0x3eb038ff	0.34418485
45	0x3c72c6f0	0.014817938
46	0x3e13ef32	0.14446715
47	0xbe92f230	-0.287004
48	0xbc97b395	-0.018518249
49	0xbbc60d85	-0.006044092
50	0xbbccdc79	-0.0062518683
51	0x3c485189	0.012226471
52	0x3d04a19d	0.03238069
53	0xbe199427	-0.14997922
54	0xbd9f5d49	-0.077814646
55	0x3c4a2e86	0.012340194
56	0x3d8e944d	0.0696188
57	0x3de9a797	0.11408918
58	0xbd9910dc	-0.07473919
59	0x3c7805ce	0.015138103
60	0xbe30029b	-0.17188494
61	0xbe80aa44	-0.25129902
62	0xbe3023f1	-0.1720121
63	0x3babddd0	0.005244948
